<?xml version="1.0"?>
<net name="Model0" version="11">
	<layers>
		<layer id="0" name="inputs" type="Parameter" version="opset1">
			<data shape="?,3,416,416" element_type="f32" />
			<output>
				<port id="0" precision="FP32" names="image">
					<dim>-1</dim>
					<dim>3</dim>
					<dim>416</dim>
					<dim>416</dim>
				</port>
			</output>
		</layer>
		<layer id="1" name="__module.model.backbone.stem/prim::ListConstruct" type="Const" version="opset1">
			<data element_type="i64" shape="6" offset="0" size="48" />
			<output>
				<port id="0" precision="I64">
					<dim>6</dim>
				</port>
			</output>
		</layer>
		<layer id="2" name="__module.model.backbone.stem/aten::reshape/Reshape" type="Reshape" version="opset1">
			<data special_zero="true" />
			<input>
				<port id="0" precision="FP32">
					<dim>-1</dim>
					<dim>3</dim>
					<dim>416</dim>
					<dim>416</dim>
				</port>
				<port id="1" precision="I64">
					<dim>6</dim>
				</port>
			</input>
			<output>
				<port id="2" precision="FP32" names="591,x.1">
					<dim>-1</dim>
					<dim>3</dim>
					<dim>208</dim>
					<dim>2</dim>
					<dim>208</dim>
					<dim>2</dim>
				</port>
			</output>
		</layer>
		<layer id="3" name="Constant_163" type="Const" version="opset1">
			<data element_type="i64" shape="6" offset="48" size="48" />
			<output>
				<port id="0" precision="I64" names="592">
					<dim>6</dim>
				</port>
			</output>
		</layer>
		<layer id="4" name="__module.model.backbone.stem/aten::permute/Transpose" type="Transpose" version="opset1">
			<input>
				<port id="0" precision="FP32">
					<dim>-1</dim>
					<dim>3</dim>
					<dim>208</dim>
					<dim>2</dim>
					<dim>208</dim>
					<dim>2</dim>
				</port>
				<port id="1" precision="I64">
					<dim>6</dim>
				</port>
			</input>
			<output>
				<port id="2" precision="FP32" names="593,x.3">
					<dim>-1</dim>
					<dim>2</dim>
					<dim>2</dim>
					<dim>3</dim>
					<dim>208</dim>
					<dim>208</dim>
				</port>
			</output>
		</layer>
		<layer id="5" name="Constant_19720" type="Const" version="opset1">
			<data element_type="i64" shape="4" offset="96" size="32" />
			<output>
				<port id="0" precision="I64">
					<dim>4</dim>
				</port>
			</output>
		</layer>
		<layer id="6" name="__module.model.backbone.stem/aten::reshape/Reshape_1" type="Reshape" version="opset1">
			<data special_zero="true" />
			<input>
				<port id="0" precision="FP32">
					<dim>-1</dim>
					<dim>2</dim>
					<dim>2</dim>
					<dim>3</dim>
					<dim>208</dim>
					<dim>208</dim>
				</port>
				<port id="1" precision="I64">
					<dim>4</dim>
				</port>
			</input>
			<output>
				<port id="2" precision="FP32" names="601,input.1">
					<dim>-1</dim>
					<dim>12</dim>
					<dim>208</dim>
					<dim>208</dim>
				</port>
			</output>
		</layer>
		<layer id="7" name="Multiply_18925" type="Const" version="opset1">
			<data element_type="f32" shape="24, 12, 3, 3" offset="128" size="10368" />
			<output>
				<port id="0" precision="FP32">
					<dim>24</dim>
					<dim>12</dim>
					<dim>3</dim>
					<dim>3</dim>
				</port>
			</output>
		</layer>
		<layer id="8" name="Multiply_18405" type="Convolution" version="opset1">
			<data strides="1, 1" dilations="1, 1" pads_begin="1, 1" pads_end="1, 1" auto_pad="explicit" />
			<input>
				<port id="0" precision="FP32">
					<dim>-1</dim>
					<dim>12</dim>
					<dim>208</dim>
					<dim>208</dim>
				</port>
				<port id="1" precision="FP32">
					<dim>24</dim>
					<dim>12</dim>
					<dim>3</dim>
					<dim>3</dim>
				</port>
			</input>
			<output>
				<port id="2" precision="FP32">
					<dim>-1</dim>
					<dim>24</dim>
					<dim>208</dim>
					<dim>208</dim>
				</port>
			</output>
		</layer>
		<layer id="9" name="Constant_18410" type="Const" version="opset1">
			<data element_type="f32" shape="1, 24, 1, 1" offset="10496" size="96" />
			<output>
				<port id="0" precision="FP32">
					<dim>1</dim>
					<dim>24</dim>
					<dim>1</dim>
					<dim>1</dim>
				</port>
			</output>
		</layer>
		<layer id="10" name="__module.model.backbone.stem.conv.bn/aten::batch_norm/BatchNormInference" type="Add" version="opset1">
			<data auto_broadcast="numpy" />
			<input>
				<port id="0" precision="FP32">
					<dim>-1</dim>
					<dim>24</dim>
					<dim>208</dim>
					<dim>208</dim>
				</port>
				<port id="1" precision="FP32">
					<dim>1</dim>
					<dim>24</dim>
					<dim>1</dim>
					<dim>1</dim>
				</port>
			</input>
			<output>
				<port id="2" precision="FP32" names="614,x.5">
					<dim>-1</dim>
					<dim>24</dim>
					<dim>208</dim>
					<dim>208</dim>
				</port>
			</output>
		</layer>
		<layer id="11" name="__module.model.backbone.stem.conv.activation/aten::mul/Multiply" type="Swish" version="opset4">
			<input>
				<port id="0" precision="FP32">
					<dim>-1</dim>
					<dim>24</dim>
					<dim>208</dim>
					<dim>208</dim>
				</port>
			</input>
			<output>
				<port id="1" precision="FP32" names="616,input.5">
					<dim>-1</dim>
					<dim>24</dim>
					<dim>208</dim>
					<dim>208</dim>
				</port>
			</output>
		</layer>
		<layer id="12" name="Multiply_18929" type="Const" version="opset1">
			<data element_type="f32" shape="48, 24, 3, 3" offset="10592" size="41472" />
			<output>
				<port id="0" precision="FP32">
					<dim>48</dim>
					<dim>24</dim>
					<dim>3</dim>
					<dim>3</dim>
				</port>
			</output>
		</layer>
		<layer id="13" name="Multiply_18412" type="Convolution" version="opset1">
			<data strides="2, 2" dilations="1, 1" pads_begin="1, 1" pads_end="1, 1" auto_pad="explicit" />
			<input>
				<port id="0" precision="FP32">
					<dim>-1</dim>
					<dim>24</dim>
					<dim>208</dim>
					<dim>208</dim>
				</port>
				<port id="1" precision="FP32">
					<dim>48</dim>
					<dim>24</dim>
					<dim>3</dim>
					<dim>3</dim>
				</port>
			</input>
			<output>
				<port id="2" precision="FP32">
					<dim>-1</dim>
					<dim>48</dim>
					<dim>104</dim>
					<dim>104</dim>
				</port>
			</output>
		</layer>
		<layer id="14" name="Constant_18417" type="Const" version="opset1">
			<data element_type="f32" shape="1, 48, 1, 1" offset="52064" size="192" />
			<output>
				<port id="0" precision="FP32">
					<dim>1</dim>
					<dim>48</dim>
					<dim>1</dim>
					<dim>1</dim>
				</port>
			</output>
		</layer>
		<layer id="15" name="__module.model.backbone.stage1.0.bn/aten::batch_norm/BatchNormInference" type="Add" version="opset1">
			<data auto_broadcast="numpy" />
			<input>
				<port id="0" precision="FP32">
					<dim>-1</dim>
					<dim>48</dim>
					<dim>104</dim>
					<dim>104</dim>
				</port>
				<port id="1" precision="FP32">
					<dim>1</dim>
					<dim>48</dim>
					<dim>1</dim>
					<dim>1</dim>
				</port>
			</input>
			<output>
				<port id="2" precision="FP32" names="632,x.7">
					<dim>-1</dim>
					<dim>48</dim>
					<dim>104</dim>
					<dim>104</dim>
				</port>
			</output>
		</layer>
		<layer id="16" name="__module.model.backbone.stage1.0.activation/aten::mul/Multiply" type="Swish" version="opset4">
			<input>
				<port id="0" precision="FP32">
					<dim>-1</dim>
					<dim>48</dim>
					<dim>104</dim>
					<dim>104</dim>
				</port>
			</input>
			<output>
				<port id="1" precision="FP32" names="634,input.9">
					<dim>-1</dim>
					<dim>48</dim>
					<dim>104</dim>
					<dim>104</dim>
				</port>
			</output>
		</layer>
		<layer id="17" name="Multiply_18933" type="Const" version="opset1">
			<data element_type="f32" shape="24, 48, 1, 1" offset="52256" size="4608" />
			<output>
				<port id="0" precision="FP32">
					<dim>24</dim>
					<dim>48</dim>
					<dim>1</dim>
					<dim>1</dim>
				</port>
			</output>
		</layer>
		<layer id="18" name="Multiply_18419" type="Convolution" version="opset1">
			<data strides="1, 1" dilations="1, 1" pads_begin="0, 0" pads_end="0, 0" auto_pad="explicit" />
			<input>
				<port id="0" precision="FP32">
					<dim>-1</dim>
					<dim>48</dim>
					<dim>104</dim>
					<dim>104</dim>
				</port>
				<port id="1" precision="FP32">
					<dim>24</dim>
					<dim>48</dim>
					<dim>1</dim>
					<dim>1</dim>
				</port>
			</input>
			<output>
				<port id="2" precision="FP32">
					<dim>-1</dim>
					<dim>24</dim>
					<dim>104</dim>
					<dim>104</dim>
				</port>
			</output>
		</layer>
		<layer id="19" name="Constant_18424" type="Const" version="opset1">
			<data element_type="f32" shape="1, 24, 1, 1" offset="56864" size="96" />
			<output>
				<port id="0" precision="FP32">
					<dim>1</dim>
					<dim>24</dim>
					<dim>1</dim>
					<dim>1</dim>
				</port>
			</output>
		</layer>
		<layer id="20" name="__module.model.backbone.stage1.1.main_conv.bn/aten::batch_norm/BatchNormInference" type="Add" version="opset1">
			<data auto_broadcast="numpy" />
			<input>
				<port id="0" precision="FP32">
					<dim>-1</dim>
					<dim>24</dim>
					<dim>104</dim>
					<dim>104</dim>
				</port>
				<port id="1" precision="FP32">
					<dim>1</dim>
					<dim>24</dim>
					<dim>1</dim>
					<dim>1</dim>
				</port>
			</input>
			<output>
				<port id="2" precision="FP32" names="668,x.11">
					<dim>-1</dim>
					<dim>24</dim>
					<dim>104</dim>
					<dim>104</dim>
				</port>
			</output>
		</layer>
		<layer id="21" name="__module.model.backbone.stage1.1.main_conv.activation/aten::mul/Multiply" type="Swish" version="opset4">
			<input>
				<port id="0" precision="FP32">
					<dim>-1</dim>
					<dim>24</dim>
					<dim>104</dim>
					<dim>104</dim>
				</port>
			</input>
			<output>
				<port id="1" precision="FP32" names="670,input.15">
					<dim>-1</dim>
					<dim>24</dim>
					<dim>104</dim>
					<dim>104</dim>
				</port>
			</output>
		</layer>
		<layer id="22" name="Multiply_18937" type="Const" version="opset1">
			<data element_type="f32" shape="24, 24, 1, 1" offset="56960" size="2304" />
			<output>
				<port id="0" precision="FP32">
					<dim>24</dim>
					<dim>24</dim>
					<dim>1</dim>
					<dim>1</dim>
				</port>
			</output>
		</layer>
		<layer id="23" name="Multiply_18426" type="Convolution" version="opset1">
			<data strides="1, 1" dilations="1, 1" pads_begin="0, 0" pads_end="0, 0" auto_pad="explicit" />
			<input>
				<port id="0" precision="FP32">
					<dim>-1</dim>
					<dim>24</dim>
					<dim>104</dim>
					<dim>104</dim>
				</port>
				<port id="1" precision="FP32">
					<dim>24</dim>
					<dim>24</dim>
					<dim>1</dim>
					<dim>1</dim>
				</port>
			</input>
			<output>
				<port id="2" precision="FP32">
					<dim>-1</dim>
					<dim>24</dim>
					<dim>104</dim>
					<dim>104</dim>
				</port>
			</output>
		</layer>
		<layer id="24" name="Constant_18431" type="Const" version="opset1">
			<data element_type="f32" shape="1, 24, 1, 1" offset="59264" size="96" />
			<output>
				<port id="0" precision="FP32">
					<dim>1</dim>
					<dim>24</dim>
					<dim>1</dim>
					<dim>1</dim>
				</port>
			</output>
		</layer>
		<layer id="25" name="__module.model.backbone.stage1.1.blocks.0.conv1.bn/aten::batch_norm/BatchNormInference" type="Add" version="opset1">
			<data auto_broadcast="numpy" />
			<input>
				<port id="0" precision="FP32">
					<dim>-1</dim>
					<dim>24</dim>
					<dim>104</dim>
					<dim>104</dim>
				</port>
				<port id="1" precision="FP32">
					<dim>1</dim>
					<dim>24</dim>
					<dim>1</dim>
					<dim>1</dim>
				</port>
			</input>
			<output>
				<port id="2" precision="FP32" names="687,x.13">
					<dim>-1</dim>
					<dim>24</dim>
					<dim>104</dim>
					<dim>104</dim>
				</port>
			</output>
		</layer>
		<layer id="26" name="__module.model.backbone.stage1.1.blocks.0.conv1.activation/aten::mul/Multiply" type="Swish" version="opset4">
			<input>
				<port id="0" precision="FP32">
					<dim>-1</dim>
					<dim>24</dim>
					<dim>104</dim>
					<dim>104</dim>
				</port>
			</input>
			<output>
				<port id="1" precision="FP32" names="689,input.19">
					<dim>-1</dim>
					<dim>24</dim>
					<dim>104</dim>
					<dim>104</dim>
				</port>
			</output>
		</layer>
		<layer id="27" name="Multiply_18941" type="Const" version="opset1">
			<data element_type="f32" shape="24, 24, 3, 3" offset="59360" size="20736" />
			<output>
				<port id="0" precision="FP32">
					<dim>24</dim>
					<dim>24</dim>
					<dim>3</dim>
					<dim>3</dim>
				</port>
			</output>
		</layer>
		<layer id="28" name="Multiply_18433" type="Convolution" version="opset1">
			<data strides="1, 1" dilations="1, 1" pads_begin="1, 1" pads_end="1, 1" auto_pad="explicit" />
			<input>
				<port id="0" precision="FP32">
					<dim>-1</dim>
					<dim>24</dim>
					<dim>104</dim>
					<dim>104</dim>
				</port>
				<port id="1" precision="FP32">
					<dim>24</dim>
					<dim>24</dim>
					<dim>3</dim>
					<dim>3</dim>
				</port>
			</input>
			<output>
				<port id="2" precision="FP32">
					<dim>-1</dim>
					<dim>24</dim>
					<dim>104</dim>
					<dim>104</dim>
				</port>
			</output>
		</layer>
		<layer id="29" name="Constant_18438" type="Const" version="opset1">
			<data element_type="f32" shape="1, 24, 1, 1" offset="80096" size="96" />
			<output>
				<port id="0" precision="FP32">
					<dim>1</dim>
					<dim>24</dim>
					<dim>1</dim>
					<dim>1</dim>
				</port>
			</output>
		</layer>
		<layer id="30" name="__module.model.backbone.stage1.1.blocks.0.conv2.bn/aten::batch_norm/BatchNormInference" type="Add" version="opset1">
			<data auto_broadcast="numpy" />
			<input>
				<port id="0" precision="FP32">
					<dim>-1</dim>
					<dim>24</dim>
					<dim>104</dim>
					<dim>104</dim>
				</port>
				<port id="1" precision="FP32">
					<dim>1</dim>
					<dim>24</dim>
					<dim>1</dim>
					<dim>1</dim>
				</port>
			</input>
			<output>
				<port id="2" precision="FP32" names="703,x.15">
					<dim>-1</dim>
					<dim>24</dim>
					<dim>104</dim>
					<dim>104</dim>
				</port>
			</output>
		</layer>
		<layer id="31" name="__module.model.backbone.stage1.1.blocks.0.conv2.activation/aten::mul/Multiply" type="Swish" version="opset4">
			<input>
				<port id="0" precision="FP32">
					<dim>-1</dim>
					<dim>24</dim>
					<dim>104</dim>
					<dim>104</dim>
				</port>
			</input>
			<output>
				<port id="1" precision="FP32" names="705,out.1">
					<dim>-1</dim>
					<dim>24</dim>
					<dim>104</dim>
					<dim>104</dim>
				</port>
			</output>
		</layer>
		<layer id="32" name="__module.model.backbone.stage1.1.blocks.0/aten::add/Add" type="Add" version="opset1">
			<data auto_broadcast="numpy" />
			<input>
				<port id="0" precision="FP32">
					<dim>-1</dim>
					<dim>24</dim>
					<dim>104</dim>
					<dim>104</dim>
				</port>
				<port id="1" precision="FP32">
					<dim>-1</dim>
					<dim>24</dim>
					<dim>104</dim>
					<dim>104</dim>
				</port>
			</input>
			<output>
				<port id="2" precision="FP32" names="706,x_main.1">
					<dim>-1</dim>
					<dim>24</dim>
					<dim>104</dim>
					<dim>104</dim>
				</port>
			</output>
		</layer>
		<layer id="33" name="Multiply_18945" type="Const" version="opset1">
			<data element_type="f32" shape="24, 48, 1, 1" offset="80192" size="4608" />
			<output>
				<port id="0" precision="FP32">
					<dim>24</dim>
					<dim>48</dim>
					<dim>1</dim>
					<dim>1</dim>
				</port>
			</output>
		</layer>
		<layer id="34" name="Multiply_18440" type="Convolution" version="opset1">
			<data strides="1, 1" dilations="1, 1" pads_begin="0, 0" pads_end="0, 0" auto_pad="explicit" />
			<input>
				<port id="0" precision="FP32">
					<dim>-1</dim>
					<dim>48</dim>
					<dim>104</dim>
					<dim>104</dim>
				</port>
				<port id="1" precision="FP32">
					<dim>24</dim>
					<dim>48</dim>
					<dim>1</dim>
					<dim>1</dim>
				</port>
			</input>
			<output>
				<port id="2" precision="FP32">
					<dim>-1</dim>
					<dim>24</dim>
					<dim>104</dim>
					<dim>104</dim>
				</port>
			</output>
		</layer>
		<layer id="35" name="Constant_18445" type="Const" version="opset1">
			<data element_type="f32" shape="1, 24, 1, 1" offset="84800" size="96" />
			<output>
				<port id="0" precision="FP32">
					<dim>1</dim>
					<dim>24</dim>
					<dim>1</dim>
					<dim>1</dim>
				</port>
			</output>
		</layer>
		<layer id="36" name="__module.model.backbone.stage1.1.short_conv.bn/aten::batch_norm/BatchNormInference" type="Add" version="opset1">
			<data auto_broadcast="numpy" />
			<input>
				<port id="0" precision="FP32">
					<dim>-1</dim>
					<dim>24</dim>
					<dim>104</dim>
					<dim>104</dim>
				</port>
				<port id="1" precision="FP32">
					<dim>1</dim>
					<dim>24</dim>
					<dim>1</dim>
					<dim>1</dim>
				</port>
			</input>
			<output>
				<port id="2" precision="FP32" names="652,x.9">
					<dim>-1</dim>
					<dim>24</dim>
					<dim>104</dim>
					<dim>104</dim>
				</port>
			</output>
		</layer>
		<layer id="37" name="__module.model.backbone.stage1.1.short_conv.activation/aten::mul/Multiply" type="Swish" version="opset4">
			<input>
				<port id="0" precision="FP32">
					<dim>-1</dim>
					<dim>24</dim>
					<dim>104</dim>
					<dim>104</dim>
				</port>
			</input>
			<output>
				<port id="1" precision="FP32" names="654,x_short.1">
					<dim>-1</dim>
					<dim>24</dim>
					<dim>104</dim>
					<dim>104</dim>
				</port>
			</output>
		</layer>
		<layer id="38" name="__module.model.backbone.stage1.1/aten::cat/Concat" type="Concat" version="opset1">
			<data axis="1" />
			<input>
				<port id="0" precision="FP32">
					<dim>-1</dim>
					<dim>24</dim>
					<dim>104</dim>
					<dim>104</dim>
				</port>
				<port id="1" precision="FP32">
					<dim>-1</dim>
					<dim>24</dim>
					<dim>104</dim>
					<dim>104</dim>
				</port>
			</input>
			<output>
				<port id="2" precision="FP32" names="708,input.23">
					<dim>-1</dim>
					<dim>48</dim>
					<dim>104</dim>
					<dim>104</dim>
				</port>
			</output>
		</layer>
		<layer id="39" name="Multiply_18949" type="Const" version="opset1">
			<data element_type="f32" shape="48, 48, 1, 1" offset="84896" size="9216" />
			<output>
				<port id="0" precision="FP32">
					<dim>48</dim>
					<dim>48</dim>
					<dim>1</dim>
					<dim>1</dim>
				</port>
			</output>
		</layer>
		<layer id="40" name="Multiply_18447" type="Convolution" version="opset1">
			<data strides="1, 1" dilations="1, 1" pads_begin="0, 0" pads_end="0, 0" auto_pad="explicit" />
			<input>
				<port id="0" precision="FP32">
					<dim>-1</dim>
					<dim>48</dim>
					<dim>104</dim>
					<dim>104</dim>
				</port>
				<port id="1" precision="FP32">
					<dim>48</dim>
					<dim>48</dim>
					<dim>1</dim>
					<dim>1</dim>
				</port>
			</input>
			<output>
				<port id="2" precision="FP32">
					<dim>-1</dim>
					<dim>48</dim>
					<dim>104</dim>
					<dim>104</dim>
				</port>
			</output>
		</layer>
		<layer id="41" name="Constant_18452" type="Const" version="opset1">
			<data element_type="f32" shape="1, 48, 1, 1" offset="94112" size="192" />
			<output>
				<port id="0" precision="FP32">
					<dim>1</dim>
					<dim>48</dim>
					<dim>1</dim>
					<dim>1</dim>
				</port>
			</output>
		</layer>
		<layer id="42" name="__module.model.backbone.stage1.1.final_conv.bn/aten::batch_norm/BatchNormInference" type="Add" version="opset1">
			<data auto_broadcast="numpy" />
			<input>
				<port id="0" precision="FP32">
					<dim>-1</dim>
					<dim>48</dim>
					<dim>104</dim>
					<dim>104</dim>
				</port>
				<port id="1" precision="FP32">
					<dim>1</dim>
					<dim>48</dim>
					<dim>1</dim>
					<dim>1</dim>
				</port>
			</input>
			<output>
				<port id="2" precision="FP32" names="722,x.17">
					<dim>-1</dim>
					<dim>48</dim>
					<dim>104</dim>
					<dim>104</dim>
				</port>
			</output>
		</layer>
		<layer id="43" name="__module.model.backbone.stage1.1.final_conv.activation/aten::mul/Multiply" type="Swish" version="opset4">
			<input>
				<port id="0" precision="FP32">
					<dim>-1</dim>
					<dim>48</dim>
					<dim>104</dim>
					<dim>104</dim>
				</port>
			</input>
			<output>
				<port id="1" precision="FP32" names="724,input.27">
					<dim>-1</dim>
					<dim>48</dim>
					<dim>104</dim>
					<dim>104</dim>
				</port>
			</output>
		</layer>
		<layer id="44" name="Multiply_18953" type="Const" version="opset1">
			<data element_type="f32" shape="96, 48, 3, 3" offset="94304" size="165888" />
			<output>
				<port id="0" precision="FP32">
					<dim>96</dim>
					<dim>48</dim>
					<dim>3</dim>
					<dim>3</dim>
				</port>
			</output>
		</layer>
		<layer id="45" name="Multiply_18454" type="Convolution" version="opset1">
			<data strides="2, 2" dilations="1, 1" pads_begin="1, 1" pads_end="1, 1" auto_pad="explicit" />
			<input>
				<port id="0" precision="FP32">
					<dim>-1</dim>
					<dim>48</dim>
					<dim>104</dim>
					<dim>104</dim>
				</port>
				<port id="1" precision="FP32">
					<dim>96</dim>
					<dim>48</dim>
					<dim>3</dim>
					<dim>3</dim>
				</port>
			</input>
			<output>
				<port id="2" precision="FP32">
					<dim>-1</dim>
					<dim>96</dim>
					<dim>52</dim>
					<dim>52</dim>
				</port>
			</output>
		</layer>
		<layer id="46" name="Constant_18459" type="Const" version="opset1">
			<data element_type="f32" shape="1, 96, 1, 1" offset="260192" size="384" />
			<output>
				<port id="0" precision="FP32">
					<dim>1</dim>
					<dim>96</dim>
					<dim>1</dim>
					<dim>1</dim>
				</port>
			</output>
		</layer>
		<layer id="47" name="__module.model.backbone.stage2.0.bn/aten::batch_norm/BatchNormInference" type="Add" version="opset1">
			<data auto_broadcast="numpy" />
			<input>
				<port id="0" precision="FP32">
					<dim>-1</dim>
					<dim>96</dim>
					<dim>52</dim>
					<dim>52</dim>
				</port>
				<port id="1" precision="FP32">
					<dim>1</dim>
					<dim>96</dim>
					<dim>1</dim>
					<dim>1</dim>
				</port>
			</input>
			<output>
				<port id="2" precision="FP32" names="740,x.19">
					<dim>-1</dim>
					<dim>96</dim>
					<dim>52</dim>
					<dim>52</dim>
				</port>
			</output>
		</layer>
		<layer id="48" name="__module.model.backbone.stage2.0.activation/aten::mul/Multiply" type="Swish" version="opset4">
			<input>
				<port id="0" precision="FP32">
					<dim>-1</dim>
					<dim>96</dim>
					<dim>52</dim>
					<dim>52</dim>
				</port>
			</input>
			<output>
				<port id="1" precision="FP32" names="742,input.31">
					<dim>-1</dim>
					<dim>96</dim>
					<dim>52</dim>
					<dim>52</dim>
				</port>
			</output>
		</layer>
		<layer id="49" name="Multiply_18957" type="Const" version="opset1">
			<data element_type="f32" shape="48, 96, 1, 1" offset="260576" size="18432" />
			<output>
				<port id="0" precision="FP32">
					<dim>48</dim>
					<dim>96</dim>
					<dim>1</dim>
					<dim>1</dim>
				</port>
			</output>
		</layer>
		<layer id="50" name="Multiply_18461" type="Convolution" version="opset1">
			<data strides="1, 1" dilations="1, 1" pads_begin="0, 0" pads_end="0, 0" auto_pad="explicit" />
			<input>
				<port id="0" precision="FP32">
					<dim>-1</dim>
					<dim>96</dim>
					<dim>52</dim>
					<dim>52</dim>
				</port>
				<port id="1" precision="FP32">
					<dim>48</dim>
					<dim>96</dim>
					<dim>1</dim>
					<dim>1</dim>
				</port>
			</input>
			<output>
				<port id="2" precision="FP32">
					<dim>-1</dim>
					<dim>48</dim>
					<dim>52</dim>
					<dim>52</dim>
				</port>
			</output>
		</layer>
		<layer id="51" name="Constant_18466" type="Const" version="opset1">
			<data element_type="f32" shape="1, 48, 1, 1" offset="279008" size="192" />
			<output>
				<port id="0" precision="FP32">
					<dim>1</dim>
					<dim>48</dim>
					<dim>1</dim>
					<dim>1</dim>
				</port>
			</output>
		</layer>
		<layer id="52" name="__module.model.backbone.stage2.1.main_conv.bn/aten::batch_norm/BatchNormInference" type="Add" version="opset1">
			<data auto_broadcast="numpy" />
			<input>
				<port id="0" precision="FP32">
					<dim>-1</dim>
					<dim>48</dim>
					<dim>52</dim>
					<dim>52</dim>
				</port>
				<port id="1" precision="FP32">
					<dim>1</dim>
					<dim>48</dim>
					<dim>1</dim>
					<dim>1</dim>
				</port>
			</input>
			<output>
				<port id="2" precision="FP32" names="776,x.23">
					<dim>-1</dim>
					<dim>48</dim>
					<dim>52</dim>
					<dim>52</dim>
				</port>
			</output>
		</layer>
		<layer id="53" name="__module.model.backbone.stage2.1.main_conv.activation/aten::mul/Multiply" type="Swish" version="opset4">
			<input>
				<port id="0" precision="FP32">
					<dim>-1</dim>
					<dim>48</dim>
					<dim>52</dim>
					<dim>52</dim>
				</port>
			</input>
			<output>
				<port id="1" precision="FP32" names="778,input.37">
					<dim>-1</dim>
					<dim>48</dim>
					<dim>52</dim>
					<dim>52</dim>
				</port>
			</output>
		</layer>
		<layer id="54" name="Multiply_18961" type="Const" version="opset1">
			<data element_type="f32" shape="48, 48, 1, 1" offset="279200" size="9216" />
			<output>
				<port id="0" precision="FP32">
					<dim>48</dim>
					<dim>48</dim>
					<dim>1</dim>
					<dim>1</dim>
				</port>
			</output>
		</layer>
		<layer id="55" name="Multiply_18468" type="Convolution" version="opset1">
			<data strides="1, 1" dilations="1, 1" pads_begin="0, 0" pads_end="0, 0" auto_pad="explicit" />
			<input>
				<port id="0" precision="FP32">
					<dim>-1</dim>
					<dim>48</dim>
					<dim>52</dim>
					<dim>52</dim>
				</port>
				<port id="1" precision="FP32">
					<dim>48</dim>
					<dim>48</dim>
					<dim>1</dim>
					<dim>1</dim>
				</port>
			</input>
			<output>
				<port id="2" precision="FP32">
					<dim>-1</dim>
					<dim>48</dim>
					<dim>52</dim>
					<dim>52</dim>
				</port>
			</output>
		</layer>
		<layer id="56" name="Constant_18473" type="Const" version="opset1">
			<data element_type="f32" shape="1, 48, 1, 1" offset="288416" size="192" />
			<output>
				<port id="0" precision="FP32">
					<dim>1</dim>
					<dim>48</dim>
					<dim>1</dim>
					<dim>1</dim>
				</port>
			</output>
		</layer>
		<layer id="57" name="__module.model.backbone.stage2.1.blocks.0.conv1.bn/aten::batch_norm/BatchNormInference" type="Add" version="opset1">
			<data auto_broadcast="numpy" />
			<input>
				<port id="0" precision="FP32">
					<dim>-1</dim>
					<dim>48</dim>
					<dim>52</dim>
					<dim>52</dim>
				</port>
				<port id="1" precision="FP32">
					<dim>1</dim>
					<dim>48</dim>
					<dim>1</dim>
					<dim>1</dim>
				</port>
			</input>
			<output>
				<port id="2" precision="FP32" names="797,x.25">
					<dim>-1</dim>
					<dim>48</dim>
					<dim>52</dim>
					<dim>52</dim>
				</port>
			</output>
		</layer>
		<layer id="58" name="__module.model.backbone.stage2.1.blocks.0.conv1.activation/aten::mul/Multiply" type="Swish" version="opset4">
			<input>
				<port id="0" precision="FP32">
					<dim>-1</dim>
					<dim>48</dim>
					<dim>52</dim>
					<dim>52</dim>
				</port>
			</input>
			<output>
				<port id="1" precision="FP32" names="799,input.41">
					<dim>-1</dim>
					<dim>48</dim>
					<dim>52</dim>
					<dim>52</dim>
				</port>
			</output>
		</layer>
		<layer id="59" name="Multiply_18965" type="Const" version="opset1">
			<data element_type="f32" shape="48, 48, 3, 3" offset="288608" size="82944" />
			<output>
				<port id="0" precision="FP32">
					<dim>48</dim>
					<dim>48</dim>
					<dim>3</dim>
					<dim>3</dim>
				</port>
			</output>
		</layer>
		<layer id="60" name="Multiply_18475" type="Convolution" version="opset1">
			<data strides="1, 1" dilations="1, 1" pads_begin="1, 1" pads_end="1, 1" auto_pad="explicit" />
			<input>
				<port id="0" precision="FP32">
					<dim>-1</dim>
					<dim>48</dim>
					<dim>52</dim>
					<dim>52</dim>
				</port>
				<port id="1" precision="FP32">
					<dim>48</dim>
					<dim>48</dim>
					<dim>3</dim>
					<dim>3</dim>
				</port>
			</input>
			<output>
				<port id="2" precision="FP32">
					<dim>-1</dim>
					<dim>48</dim>
					<dim>52</dim>
					<dim>52</dim>
				</port>
			</output>
		</layer>
		<layer id="61" name="Constant_18480" type="Const" version="opset1">
			<data element_type="f32" shape="1, 48, 1, 1" offset="371552" size="192" />
			<output>
				<port id="0" precision="FP32">
					<dim>1</dim>
					<dim>48</dim>
					<dim>1</dim>
					<dim>1</dim>
				</port>
			</output>
		</layer>
		<layer id="62" name="__module.model.backbone.stage2.1.blocks.0.conv2.bn/aten::batch_norm/BatchNormInference" type="Add" version="opset1">
			<data auto_broadcast="numpy" />
			<input>
				<port id="0" precision="FP32">
					<dim>-1</dim>
					<dim>48</dim>
					<dim>52</dim>
					<dim>52</dim>
				</port>
				<port id="1" precision="FP32">
					<dim>1</dim>
					<dim>48</dim>
					<dim>1</dim>
					<dim>1</dim>
				</port>
			</input>
			<output>
				<port id="2" precision="FP32" names="813,x.27">
					<dim>-1</dim>
					<dim>48</dim>
					<dim>52</dim>
					<dim>52</dim>
				</port>
			</output>
		</layer>
		<layer id="63" name="__module.model.backbone.stage2.1.blocks.0.conv2.activation/aten::mul/Multiply" type="Swish" version="opset4">
			<input>
				<port id="0" precision="FP32">
					<dim>-1</dim>
					<dim>48</dim>
					<dim>52</dim>
					<dim>52</dim>
				</port>
			</input>
			<output>
				<port id="1" precision="FP32" names="815,out.3">
					<dim>-1</dim>
					<dim>48</dim>
					<dim>52</dim>
					<dim>52</dim>
				</port>
			</output>
		</layer>
		<layer id="64" name="__module.model.backbone.stage2.1.blocks.0/aten::add/Add" type="Add" version="opset1">
			<data auto_broadcast="numpy" />
			<input>
				<port id="0" precision="FP32">
					<dim>-1</dim>
					<dim>48</dim>
					<dim>52</dim>
					<dim>52</dim>
				</port>
				<port id="1" precision="FP32">
					<dim>-1</dim>
					<dim>48</dim>
					<dim>52</dim>
					<dim>52</dim>
				</port>
			</input>
			<output>
				<port id="2" precision="FP32" names="816,input.45">
					<dim>-1</dim>
					<dim>48</dim>
					<dim>52</dim>
					<dim>52</dim>
				</port>
			</output>
		</layer>
		<layer id="65" name="Multiply_18969" type="Const" version="opset1">
			<data element_type="f32" shape="48, 48, 1, 1" offset="371744" size="9216" />
			<output>
				<port id="0" precision="FP32">
					<dim>48</dim>
					<dim>48</dim>
					<dim>1</dim>
					<dim>1</dim>
				</port>
			</output>
		</layer>
		<layer id="66" name="Multiply_18482" type="Convolution" version="opset1">
			<data strides="1, 1" dilations="1, 1" pads_begin="0, 0" pads_end="0, 0" auto_pad="explicit" />
			<input>
				<port id="0" precision="FP32">
					<dim>-1</dim>
					<dim>48</dim>
					<dim>52</dim>
					<dim>52</dim>
				</port>
				<port id="1" precision="FP32">
					<dim>48</dim>
					<dim>48</dim>
					<dim>1</dim>
					<dim>1</dim>
				</port>
			</input>
			<output>
				<port id="2" precision="FP32">
					<dim>-1</dim>
					<dim>48</dim>
					<dim>52</dim>
					<dim>52</dim>
				</port>
			</output>
		</layer>
		<layer id="67" name="Constant_18487" type="Const" version="opset1">
			<data element_type="f32" shape="1, 48, 1, 1" offset="380960" size="192" />
			<output>
				<port id="0" precision="FP32">
					<dim>1</dim>
					<dim>48</dim>
					<dim>1</dim>
					<dim>1</dim>
				</port>
			</output>
		</layer>
		<layer id="68" name="__module.model.backbone.stage2.1.blocks.1.conv1.bn/aten::batch_norm/BatchNormInference" type="Add" version="opset1">
			<data auto_broadcast="numpy" />
			<input>
				<port id="0" precision="FP32">
					<dim>-1</dim>
					<dim>48</dim>
					<dim>52</dim>
					<dim>52</dim>
				</port>
				<port id="1" precision="FP32">
					<dim>1</dim>
					<dim>48</dim>
					<dim>1</dim>
					<dim>1</dim>
				</port>
			</input>
			<output>
				<port id="2" precision="FP32" names="832,x.29">
					<dim>-1</dim>
					<dim>48</dim>
					<dim>52</dim>
					<dim>52</dim>
				</port>
			</output>
		</layer>
		<layer id="69" name="__module.model.backbone.stage2.1.blocks.1.conv1.activation/aten::mul/Multiply" type="Swish" version="opset4">
			<input>
				<port id="0" precision="FP32">
					<dim>-1</dim>
					<dim>48</dim>
					<dim>52</dim>
					<dim>52</dim>
				</port>
			</input>
			<output>
				<port id="1" precision="FP32" names="834,input.49">
					<dim>-1</dim>
					<dim>48</dim>
					<dim>52</dim>
					<dim>52</dim>
				</port>
			</output>
		</layer>
		<layer id="70" name="Multiply_18973" type="Const" version="opset1">
			<data element_type="f32" shape="48, 48, 3, 3" offset="381152" size="82944" />
			<output>
				<port id="0" precision="FP32">
					<dim>48</dim>
					<dim>48</dim>
					<dim>3</dim>
					<dim>3</dim>
				</port>
			</output>
		</layer>
		<layer id="71" name="Multiply_18489" type="Convolution" version="opset1">
			<data strides="1, 1" dilations="1, 1" pads_begin="1, 1" pads_end="1, 1" auto_pad="explicit" />
			<input>
				<port id="0" precision="FP32">
					<dim>-1</dim>
					<dim>48</dim>
					<dim>52</dim>
					<dim>52</dim>
				</port>
				<port id="1" precision="FP32">
					<dim>48</dim>
					<dim>48</dim>
					<dim>3</dim>
					<dim>3</dim>
				</port>
			</input>
			<output>
				<port id="2" precision="FP32">
					<dim>-1</dim>
					<dim>48</dim>
					<dim>52</dim>
					<dim>52</dim>
				</port>
			</output>
		</layer>
		<layer id="72" name="Constant_18494" type="Const" version="opset1">
			<data element_type="f32" shape="1, 48, 1, 1" offset="464096" size="192" />
			<output>
				<port id="0" precision="FP32">
					<dim>1</dim>
					<dim>48</dim>
					<dim>1</dim>
					<dim>1</dim>
				</port>
			</output>
		</layer>
		<layer id="73" name="__module.model.backbone.stage2.1.blocks.1.conv2.bn/aten::batch_norm/BatchNormInference" type="Add" version="opset1">
			<data auto_broadcast="numpy" />
			<input>
				<port id="0" precision="FP32">
					<dim>-1</dim>
					<dim>48</dim>
					<dim>52</dim>
					<dim>52</dim>
				</port>
				<port id="1" precision="FP32">
					<dim>1</dim>
					<dim>48</dim>
					<dim>1</dim>
					<dim>1</dim>
				</port>
			</input>
			<output>
				<port id="2" precision="FP32" names="848,x.31">
					<dim>-1</dim>
					<dim>48</dim>
					<dim>52</dim>
					<dim>52</dim>
				</port>
			</output>
		</layer>
		<layer id="74" name="__module.model.backbone.stage2.1.blocks.1.conv2.activation/aten::mul/Multiply" type="Swish" version="opset4">
			<input>
				<port id="0" precision="FP32">
					<dim>-1</dim>
					<dim>48</dim>
					<dim>52</dim>
					<dim>52</dim>
				</port>
			</input>
			<output>
				<port id="1" precision="FP32" names="850,out.5">
					<dim>-1</dim>
					<dim>48</dim>
					<dim>52</dim>
					<dim>52</dim>
				</port>
			</output>
		</layer>
		<layer id="75" name="__module.model.backbone.stage2.1.blocks.1/aten::add/Add" type="Add" version="opset1">
			<data auto_broadcast="numpy" />
			<input>
				<port id="0" precision="FP32">
					<dim>-1</dim>
					<dim>48</dim>
					<dim>52</dim>
					<dim>52</dim>
				</port>
				<port id="1" precision="FP32">
					<dim>-1</dim>
					<dim>48</dim>
					<dim>52</dim>
					<dim>52</dim>
				</port>
			</input>
			<output>
				<port id="2" precision="FP32" names="851,input.53">
					<dim>-1</dim>
					<dim>48</dim>
					<dim>52</dim>
					<dim>52</dim>
				</port>
			</output>
		</layer>
		<layer id="76" name="Multiply_18977" type="Const" version="opset1">
			<data element_type="f32" shape="48, 48, 1, 1" offset="464288" size="9216" />
			<output>
				<port id="0" precision="FP32">
					<dim>48</dim>
					<dim>48</dim>
					<dim>1</dim>
					<dim>1</dim>
				</port>
			</output>
		</layer>
		<layer id="77" name="Multiply_18496" type="Convolution" version="opset1">
			<data strides="1, 1" dilations="1, 1" pads_begin="0, 0" pads_end="0, 0" auto_pad="explicit" />
			<input>
				<port id="0" precision="FP32">
					<dim>-1</dim>
					<dim>48</dim>
					<dim>52</dim>
					<dim>52</dim>
				</port>
				<port id="1" precision="FP32">
					<dim>48</dim>
					<dim>48</dim>
					<dim>1</dim>
					<dim>1</dim>
				</port>
			</input>
			<output>
				<port id="2" precision="FP32">
					<dim>-1</dim>
					<dim>48</dim>
					<dim>52</dim>
					<dim>52</dim>
				</port>
			</output>
		</layer>
		<layer id="78" name="Constant_18501" type="Const" version="opset1">
			<data element_type="f32" shape="1, 48, 1, 1" offset="473504" size="192" />
			<output>
				<port id="0" precision="FP32">
					<dim>1</dim>
					<dim>48</dim>
					<dim>1</dim>
					<dim>1</dim>
				</port>
			</output>
		</layer>
		<layer id="79" name="__module.model.backbone.stage2.1.blocks.2.conv1.bn/aten::batch_norm/BatchNormInference" type="Add" version="opset1">
			<data auto_broadcast="numpy" />
			<input>
				<port id="0" precision="FP32">
					<dim>-1</dim>
					<dim>48</dim>
					<dim>52</dim>
					<dim>52</dim>
				</port>
				<port id="1" precision="FP32">
					<dim>1</dim>
					<dim>48</dim>
					<dim>1</dim>
					<dim>1</dim>
				</port>
			</input>
			<output>
				<port id="2" precision="FP32" names="867,x.33">
					<dim>-1</dim>
					<dim>48</dim>
					<dim>52</dim>
					<dim>52</dim>
				</port>
			</output>
		</layer>
		<layer id="80" name="__module.model.backbone.stage2.1.blocks.2.conv1.activation/aten::mul/Multiply" type="Swish" version="opset4">
			<input>
				<port id="0" precision="FP32">
					<dim>-1</dim>
					<dim>48</dim>
					<dim>52</dim>
					<dim>52</dim>
				</port>
			</input>
			<output>
				<port id="1" precision="FP32" names="869,input.57">
					<dim>-1</dim>
					<dim>48</dim>
					<dim>52</dim>
					<dim>52</dim>
				</port>
			</output>
		</layer>
		<layer id="81" name="Multiply_18981" type="Const" version="opset1">
			<data element_type="f32" shape="48, 48, 3, 3" offset="473696" size="82944" />
			<output>
				<port id="0" precision="FP32">
					<dim>48</dim>
					<dim>48</dim>
					<dim>3</dim>
					<dim>3</dim>
				</port>
			</output>
		</layer>
		<layer id="82" name="Multiply_18503" type="Convolution" version="opset1">
			<data strides="1, 1" dilations="1, 1" pads_begin="1, 1" pads_end="1, 1" auto_pad="explicit" />
			<input>
				<port id="0" precision="FP32">
					<dim>-1</dim>
					<dim>48</dim>
					<dim>52</dim>
					<dim>52</dim>
				</port>
				<port id="1" precision="FP32">
					<dim>48</dim>
					<dim>48</dim>
					<dim>3</dim>
					<dim>3</dim>
				</port>
			</input>
			<output>
				<port id="2" precision="FP32">
					<dim>-1</dim>
					<dim>48</dim>
					<dim>52</dim>
					<dim>52</dim>
				</port>
			</output>
		</layer>
		<layer id="83" name="Constant_18508" type="Const" version="opset1">
			<data element_type="f32" shape="1, 48, 1, 1" offset="556640" size="192" />
			<output>
				<port id="0" precision="FP32">
					<dim>1</dim>
					<dim>48</dim>
					<dim>1</dim>
					<dim>1</dim>
				</port>
			</output>
		</layer>
		<layer id="84" name="__module.model.backbone.stage2.1.blocks.2.conv2.bn/aten::batch_norm/BatchNormInference" type="Add" version="opset1">
			<data auto_broadcast="numpy" />
			<input>
				<port id="0" precision="FP32">
					<dim>-1</dim>
					<dim>48</dim>
					<dim>52</dim>
					<dim>52</dim>
				</port>
				<port id="1" precision="FP32">
					<dim>1</dim>
					<dim>48</dim>
					<dim>1</dim>
					<dim>1</dim>
				</port>
			</input>
			<output>
				<port id="2" precision="FP32" names="883,x.35">
					<dim>-1</dim>
					<dim>48</dim>
					<dim>52</dim>
					<dim>52</dim>
				</port>
			</output>
		</layer>
		<layer id="85" name="__module.model.backbone.stage2.1.blocks.2.conv2.activation/aten::mul/Multiply" type="Swish" version="opset4">
			<input>
				<port id="0" precision="FP32">
					<dim>-1</dim>
					<dim>48</dim>
					<dim>52</dim>
					<dim>52</dim>
				</port>
			</input>
			<output>
				<port id="1" precision="FP32" names="885,out.7">
					<dim>-1</dim>
					<dim>48</dim>
					<dim>52</dim>
					<dim>52</dim>
				</port>
			</output>
		</layer>
		<layer id="86" name="__module.model.backbone.stage2.1.blocks.2/aten::add/Add" type="Add" version="opset1">
			<data auto_broadcast="numpy" />
			<input>
				<port id="0" precision="FP32">
					<dim>-1</dim>
					<dim>48</dim>
					<dim>52</dim>
					<dim>52</dim>
				</port>
				<port id="1" precision="FP32">
					<dim>-1</dim>
					<dim>48</dim>
					<dim>52</dim>
					<dim>52</dim>
				</port>
			</input>
			<output>
				<port id="2" precision="FP32" names="886,x_main.3">
					<dim>-1</dim>
					<dim>48</dim>
					<dim>52</dim>
					<dim>52</dim>
				</port>
			</output>
		</layer>
		<layer id="87" name="Multiply_18985" type="Const" version="opset1">
			<data element_type="f32" shape="48, 96, 1, 1" offset="556832" size="18432" />
			<output>
				<port id="0" precision="FP32">
					<dim>48</dim>
					<dim>96</dim>
					<dim>1</dim>
					<dim>1</dim>
				</port>
			</output>
		</layer>
		<layer id="88" name="Multiply_18510" type="Convolution" version="opset1">
			<data strides="1, 1" dilations="1, 1" pads_begin="0, 0" pads_end="0, 0" auto_pad="explicit" />
			<input>
				<port id="0" precision="FP32">
					<dim>-1</dim>
					<dim>96</dim>
					<dim>52</dim>
					<dim>52</dim>
				</port>
				<port id="1" precision="FP32">
					<dim>48</dim>
					<dim>96</dim>
					<dim>1</dim>
					<dim>1</dim>
				</port>
			</input>
			<output>
				<port id="2" precision="FP32">
					<dim>-1</dim>
					<dim>48</dim>
					<dim>52</dim>
					<dim>52</dim>
				</port>
			</output>
		</layer>
		<layer id="89" name="Constant_18515" type="Const" version="opset1">
			<data element_type="f32" shape="1, 48, 1, 1" offset="575264" size="192" />
			<output>
				<port id="0" precision="FP32">
					<dim>1</dim>
					<dim>48</dim>
					<dim>1</dim>
					<dim>1</dim>
				</port>
			</output>
		</layer>
		<layer id="90" name="__module.model.backbone.stage2.1.short_conv.bn/aten::batch_norm/BatchNormInference" type="Add" version="opset1">
			<data auto_broadcast="numpy" />
			<input>
				<port id="0" precision="FP32">
					<dim>-1</dim>
					<dim>48</dim>
					<dim>52</dim>
					<dim>52</dim>
				</port>
				<port id="1" precision="FP32">
					<dim>1</dim>
					<dim>48</dim>
					<dim>1</dim>
					<dim>1</dim>
				</port>
			</input>
			<output>
				<port id="2" precision="FP32" names="760,x.21">
					<dim>-1</dim>
					<dim>48</dim>
					<dim>52</dim>
					<dim>52</dim>
				</port>
			</output>
		</layer>
		<layer id="91" name="__module.model.backbone.stage2.1.short_conv.activation/aten::mul/Multiply" type="Swish" version="opset4">
			<input>
				<port id="0" precision="FP32">
					<dim>-1</dim>
					<dim>48</dim>
					<dim>52</dim>
					<dim>52</dim>
				</port>
			</input>
			<output>
				<port id="1" precision="FP32" names="762,x_short.3">
					<dim>-1</dim>
					<dim>48</dim>
					<dim>52</dim>
					<dim>52</dim>
				</port>
			</output>
		</layer>
		<layer id="92" name="__module.model.backbone.stage2.1/aten::cat/Concat" type="Concat" version="opset1">
			<data axis="1" />
			<input>
				<port id="0" precision="FP32">
					<dim>-1</dim>
					<dim>48</dim>
					<dim>52</dim>
					<dim>52</dim>
				</port>
				<port id="1" precision="FP32">
					<dim>-1</dim>
					<dim>48</dim>
					<dim>52</dim>
					<dim>52</dim>
				</port>
			</input>
			<output>
				<port id="2" precision="FP32" names="888,input.61">
					<dim>-1</dim>
					<dim>96</dim>
					<dim>52</dim>
					<dim>52</dim>
				</port>
			</output>
		</layer>
		<layer id="93" name="Multiply_18989" type="Const" version="opset1">
			<data element_type="f32" shape="96, 96, 1, 1" offset="575456" size="36864" />
			<output>
				<port id="0" precision="FP32">
					<dim>96</dim>
					<dim>96</dim>
					<dim>1</dim>
					<dim>1</dim>
				</port>
			</output>
		</layer>
		<layer id="94" name="Multiply_18517" type="Convolution" version="opset1">
			<data strides="1, 1" dilations="1, 1" pads_begin="0, 0" pads_end="0, 0" auto_pad="explicit" />
			<input>
				<port id="0" precision="FP32">
					<dim>-1</dim>
					<dim>96</dim>
					<dim>52</dim>
					<dim>52</dim>
				</port>
				<port id="1" precision="FP32">
					<dim>96</dim>
					<dim>96</dim>
					<dim>1</dim>
					<dim>1</dim>
				</port>
			</input>
			<output>
				<port id="2" precision="FP32">
					<dim>-1</dim>
					<dim>96</dim>
					<dim>52</dim>
					<dim>52</dim>
				</port>
			</output>
		</layer>
		<layer id="95" name="Constant_18522" type="Const" version="opset1">
			<data element_type="f32" shape="1, 96, 1, 1" offset="612320" size="384" />
			<output>
				<port id="0" precision="FP32">
					<dim>1</dim>
					<dim>96</dim>
					<dim>1</dim>
					<dim>1</dim>
				</port>
			</output>
		</layer>
		<layer id="96" name="__module.model.backbone.stage2.1.final_conv.bn/aten::batch_norm/BatchNormInference" type="Add" version="opset1">
			<data auto_broadcast="numpy" />
			<input>
				<port id="0" precision="FP32">
					<dim>-1</dim>
					<dim>96</dim>
					<dim>52</dim>
					<dim>52</dim>
				</port>
				<port id="1" precision="FP32">
					<dim>1</dim>
					<dim>96</dim>
					<dim>1</dim>
					<dim>1</dim>
				</port>
			</input>
			<output>
				<port id="2" precision="FP32" names="902,x.37">
					<dim>-1</dim>
					<dim>96</dim>
					<dim>52</dim>
					<dim>52</dim>
				</port>
			</output>
		</layer>
		<layer id="97" name="__module.model.backbone.stage2.1.final_conv.activation/aten::mul/Multiply" type="Swish" version="opset4">
			<input>
				<port id="0" precision="FP32">
					<dim>-1</dim>
					<dim>96</dim>
					<dim>52</dim>
					<dim>52</dim>
				</port>
			</input>
			<output>
				<port id="1" precision="FP32" names="11,904,input.65">
					<dim>-1</dim>
					<dim>96</dim>
					<dim>52</dim>
					<dim>52</dim>
				</port>
			</output>
		</layer>
		<layer id="98" name="Multiply_18993" type="Const" version="opset1">
			<data element_type="f32" shape="192, 96, 3, 3" offset="612704" size="663552" />
			<output>
				<port id="0" precision="FP32">
					<dim>192</dim>
					<dim>96</dim>
					<dim>3</dim>
					<dim>3</dim>
				</port>
			</output>
		</layer>
		<layer id="99" name="Multiply_18524" type="Convolution" version="opset1">
			<data strides="2, 2" dilations="1, 1" pads_begin="1, 1" pads_end="1, 1" auto_pad="explicit" />
			<input>
				<port id="0" precision="FP32">
					<dim>-1</dim>
					<dim>96</dim>
					<dim>52</dim>
					<dim>52</dim>
				</port>
				<port id="1" precision="FP32">
					<dim>192</dim>
					<dim>96</dim>
					<dim>3</dim>
					<dim>3</dim>
				</port>
			</input>
			<output>
				<port id="2" precision="FP32">
					<dim>-1</dim>
					<dim>192</dim>
					<dim>26</dim>
					<dim>26</dim>
				</port>
			</output>
		</layer>
		<layer id="100" name="Constant_18529" type="Const" version="opset1">
			<data element_type="f32" shape="1, 192, 1, 1" offset="1276256" size="768" />
			<output>
				<port id="0" precision="FP32">
					<dim>1</dim>
					<dim>192</dim>
					<dim>1</dim>
					<dim>1</dim>
				</port>
			</output>
		</layer>
		<layer id="101" name="__module.model.backbone.stage3.0.bn/aten::batch_norm/BatchNormInference" type="Add" version="opset1">
			<data auto_broadcast="numpy" />
			<input>
				<port id="0" precision="FP32">
					<dim>-1</dim>
					<dim>192</dim>
					<dim>26</dim>
					<dim>26</dim>
				</port>
				<port id="1" precision="FP32">
					<dim>1</dim>
					<dim>192</dim>
					<dim>1</dim>
					<dim>1</dim>
				</port>
			</input>
			<output>
				<port id="2" precision="FP32" names="920,x.39">
					<dim>-1</dim>
					<dim>192</dim>
					<dim>26</dim>
					<dim>26</dim>
				</port>
			</output>
		</layer>
		<layer id="102" name="__module.model.backbone.stage3.0.activation/aten::mul/Multiply" type="Swish" version="opset4">
			<input>
				<port id="0" precision="FP32">
					<dim>-1</dim>
					<dim>192</dim>
					<dim>26</dim>
					<dim>26</dim>
				</port>
			</input>
			<output>
				<port id="1" precision="FP32" names="922,input.69">
					<dim>-1</dim>
					<dim>192</dim>
					<dim>26</dim>
					<dim>26</dim>
				</port>
			</output>
		</layer>
		<layer id="103" name="Multiply_18997" type="Const" version="opset1">
			<data element_type="f32" shape="96, 192, 1, 1" offset="1277024" size="73728" />
			<output>
				<port id="0" precision="FP32">
					<dim>96</dim>
					<dim>192</dim>
					<dim>1</dim>
					<dim>1</dim>
				</port>
			</output>
		</layer>
		<layer id="104" name="Multiply_18531" type="Convolution" version="opset1">
			<data strides="1, 1" dilations="1, 1" pads_begin="0, 0" pads_end="0, 0" auto_pad="explicit" />
			<input>
				<port id="0" precision="FP32">
					<dim>-1</dim>
					<dim>192</dim>
					<dim>26</dim>
					<dim>26</dim>
				</port>
				<port id="1" precision="FP32">
					<dim>96</dim>
					<dim>192</dim>
					<dim>1</dim>
					<dim>1</dim>
				</port>
			</input>
			<output>
				<port id="2" precision="FP32">
					<dim>-1</dim>
					<dim>96</dim>
					<dim>26</dim>
					<dim>26</dim>
				</port>
			</output>
		</layer>
		<layer id="105" name="Constant_18536" type="Const" version="opset1">
			<data element_type="f32" shape="1, 96, 1, 1" offset="1350752" size="384" />
			<output>
				<port id="0" precision="FP32">
					<dim>1</dim>
					<dim>96</dim>
					<dim>1</dim>
					<dim>1</dim>
				</port>
			</output>
		</layer>
		<layer id="106" name="__module.model.backbone.stage3.1.main_conv.bn/aten::batch_norm/BatchNormInference" type="Add" version="opset1">
			<data auto_broadcast="numpy" />
			<input>
				<port id="0" precision="FP32">
					<dim>-1</dim>
					<dim>96</dim>
					<dim>26</dim>
					<dim>26</dim>
				</port>
				<port id="1" precision="FP32">
					<dim>1</dim>
					<dim>96</dim>
					<dim>1</dim>
					<dim>1</dim>
				</port>
			</input>
			<output>
				<port id="2" precision="FP32" names="956,x.43">
					<dim>-1</dim>
					<dim>96</dim>
					<dim>26</dim>
					<dim>26</dim>
				</port>
			</output>
		</layer>
		<layer id="107" name="__module.model.backbone.stage3.1.main_conv.activation/aten::mul/Multiply" type="Swish" version="opset4">
			<input>
				<port id="0" precision="FP32">
					<dim>-1</dim>
					<dim>96</dim>
					<dim>26</dim>
					<dim>26</dim>
				</port>
			</input>
			<output>
				<port id="1" precision="FP32" names="958,input.75">
					<dim>-1</dim>
					<dim>96</dim>
					<dim>26</dim>
					<dim>26</dim>
				</port>
			</output>
		</layer>
		<layer id="108" name="Multiply_19001" type="Const" version="opset1">
			<data element_type="f32" shape="96, 96, 1, 1" offset="1351136" size="36864" />
			<output>
				<port id="0" precision="FP32">
					<dim>96</dim>
					<dim>96</dim>
					<dim>1</dim>
					<dim>1</dim>
				</port>
			</output>
		</layer>
		<layer id="109" name="Multiply_18538" type="Convolution" version="opset1">
			<data strides="1, 1" dilations="1, 1" pads_begin="0, 0" pads_end="0, 0" auto_pad="explicit" />
			<input>
				<port id="0" precision="FP32">
					<dim>-1</dim>
					<dim>96</dim>
					<dim>26</dim>
					<dim>26</dim>
				</port>
				<port id="1" precision="FP32">
					<dim>96</dim>
					<dim>96</dim>
					<dim>1</dim>
					<dim>1</dim>
				</port>
			</input>
			<output>
				<port id="2" precision="FP32">
					<dim>-1</dim>
					<dim>96</dim>
					<dim>26</dim>
					<dim>26</dim>
				</port>
			</output>
		</layer>
		<layer id="110" name="Constant_18543" type="Const" version="opset1">
			<data element_type="f32" shape="1, 96, 1, 1" offset="1388000" size="384" />
			<output>
				<port id="0" precision="FP32">
					<dim>1</dim>
					<dim>96</dim>
					<dim>1</dim>
					<dim>1</dim>
				</port>
			</output>
		</layer>
		<layer id="111" name="__module.model.backbone.stage3.1.blocks.0.conv1.bn/aten::batch_norm/BatchNormInference" type="Add" version="opset1">
			<data auto_broadcast="numpy" />
			<input>
				<port id="0" precision="FP32">
					<dim>-1</dim>
					<dim>96</dim>
					<dim>26</dim>
					<dim>26</dim>
				</port>
				<port id="1" precision="FP32">
					<dim>1</dim>
					<dim>96</dim>
					<dim>1</dim>
					<dim>1</dim>
				</port>
			</input>
			<output>
				<port id="2" precision="FP32" names="977,x.45">
					<dim>-1</dim>
					<dim>96</dim>
					<dim>26</dim>
					<dim>26</dim>
				</port>
			</output>
		</layer>
		<layer id="112" name="__module.model.backbone.stage3.1.blocks.0.conv1.activation/aten::mul/Multiply" type="Swish" version="opset4">
			<input>
				<port id="0" precision="FP32">
					<dim>-1</dim>
					<dim>96</dim>
					<dim>26</dim>
					<dim>26</dim>
				</port>
			</input>
			<output>
				<port id="1" precision="FP32" names="979,input.79">
					<dim>-1</dim>
					<dim>96</dim>
					<dim>26</dim>
					<dim>26</dim>
				</port>
			</output>
		</layer>
		<layer id="113" name="Multiply_19005" type="Const" version="opset1">
			<data element_type="f32" shape="96, 96, 3, 3" offset="1388384" size="331776" />
			<output>
				<port id="0" precision="FP32">
					<dim>96</dim>
					<dim>96</dim>
					<dim>3</dim>
					<dim>3</dim>
				</port>
			</output>
		</layer>
		<layer id="114" name="Multiply_18545" type="Convolution" version="opset1">
			<data strides="1, 1" dilations="1, 1" pads_begin="1, 1" pads_end="1, 1" auto_pad="explicit" />
			<input>
				<port id="0" precision="FP32">
					<dim>-1</dim>
					<dim>96</dim>
					<dim>26</dim>
					<dim>26</dim>
				</port>
				<port id="1" precision="FP32">
					<dim>96</dim>
					<dim>96</dim>
					<dim>3</dim>
					<dim>3</dim>
				</port>
			</input>
			<output>
				<port id="2" precision="FP32">
					<dim>-1</dim>
					<dim>96</dim>
					<dim>26</dim>
					<dim>26</dim>
				</port>
			</output>
		</layer>
		<layer id="115" name="Constant_18550" type="Const" version="opset1">
			<data element_type="f32" shape="1, 96, 1, 1" offset="1720160" size="384" />
			<output>
				<port id="0" precision="FP32">
					<dim>1</dim>
					<dim>96</dim>
					<dim>1</dim>
					<dim>1</dim>
				</port>
			</output>
		</layer>
		<layer id="116" name="__module.model.backbone.stage3.1.blocks.0.conv2.bn/aten::batch_norm/BatchNormInference" type="Add" version="opset1">
			<data auto_broadcast="numpy" />
			<input>
				<port id="0" precision="FP32">
					<dim>-1</dim>
					<dim>96</dim>
					<dim>26</dim>
					<dim>26</dim>
				</port>
				<port id="1" precision="FP32">
					<dim>1</dim>
					<dim>96</dim>
					<dim>1</dim>
					<dim>1</dim>
				</port>
			</input>
			<output>
				<port id="2" precision="FP32" names="993,x.47">
					<dim>-1</dim>
					<dim>96</dim>
					<dim>26</dim>
					<dim>26</dim>
				</port>
			</output>
		</layer>
		<layer id="117" name="__module.model.backbone.stage3.1.blocks.0.conv2.activation/aten::mul/Multiply" type="Swish" version="opset4">
			<input>
				<port id="0" precision="FP32">
					<dim>-1</dim>
					<dim>96</dim>
					<dim>26</dim>
					<dim>26</dim>
				</port>
			</input>
			<output>
				<port id="1" precision="FP32" names="995,out.9">
					<dim>-1</dim>
					<dim>96</dim>
					<dim>26</dim>
					<dim>26</dim>
				</port>
			</output>
		</layer>
		<layer id="118" name="__module.model.backbone.stage3.1.blocks.0/aten::add/Add" type="Add" version="opset1">
			<data auto_broadcast="numpy" />
			<input>
				<port id="0" precision="FP32">
					<dim>-1</dim>
					<dim>96</dim>
					<dim>26</dim>
					<dim>26</dim>
				</port>
				<port id="1" precision="FP32">
					<dim>-1</dim>
					<dim>96</dim>
					<dim>26</dim>
					<dim>26</dim>
				</port>
			</input>
			<output>
				<port id="2" precision="FP32" names="996,input.83">
					<dim>-1</dim>
					<dim>96</dim>
					<dim>26</dim>
					<dim>26</dim>
				</port>
			</output>
		</layer>
		<layer id="119" name="Multiply_19009" type="Const" version="opset1">
			<data element_type="f32" shape="96, 96, 1, 1" offset="1720544" size="36864" />
			<output>
				<port id="0" precision="FP32">
					<dim>96</dim>
					<dim>96</dim>
					<dim>1</dim>
					<dim>1</dim>
				</port>
			</output>
		</layer>
		<layer id="120" name="Multiply_18552" type="Convolution" version="opset1">
			<data strides="1, 1" dilations="1, 1" pads_begin="0, 0" pads_end="0, 0" auto_pad="explicit" />
			<input>
				<port id="0" precision="FP32">
					<dim>-1</dim>
					<dim>96</dim>
					<dim>26</dim>
					<dim>26</dim>
				</port>
				<port id="1" precision="FP32">
					<dim>96</dim>
					<dim>96</dim>
					<dim>1</dim>
					<dim>1</dim>
				</port>
			</input>
			<output>
				<port id="2" precision="FP32">
					<dim>-1</dim>
					<dim>96</dim>
					<dim>26</dim>
					<dim>26</dim>
				</port>
			</output>
		</layer>
		<layer id="121" name="Constant_18557" type="Const" version="opset1">
			<data element_type="f32" shape="1, 96, 1, 1" offset="1757408" size="384" />
			<output>
				<port id="0" precision="FP32">
					<dim>1</dim>
					<dim>96</dim>
					<dim>1</dim>
					<dim>1</dim>
				</port>
			</output>
		</layer>
		<layer id="122" name="__module.model.backbone.stage3.1.blocks.1.conv1.bn/aten::batch_norm/BatchNormInference" type="Add" version="opset1">
			<data auto_broadcast="numpy" />
			<input>
				<port id="0" precision="FP32">
					<dim>-1</dim>
					<dim>96</dim>
					<dim>26</dim>
					<dim>26</dim>
				</port>
				<port id="1" precision="FP32">
					<dim>1</dim>
					<dim>96</dim>
					<dim>1</dim>
					<dim>1</dim>
				</port>
			</input>
			<output>
				<port id="2" precision="FP32" names="1012,x.49">
					<dim>-1</dim>
					<dim>96</dim>
					<dim>26</dim>
					<dim>26</dim>
				</port>
			</output>
		</layer>
		<layer id="123" name="__module.model.backbone.stage3.1.blocks.1.conv1.activation/aten::mul/Multiply" type="Swish" version="opset4">
			<input>
				<port id="0" precision="FP32">
					<dim>-1</dim>
					<dim>96</dim>
					<dim>26</dim>
					<dim>26</dim>
				</port>
			</input>
			<output>
				<port id="1" precision="FP32" names="1014,input.87">
					<dim>-1</dim>
					<dim>96</dim>
					<dim>26</dim>
					<dim>26</dim>
				</port>
			</output>
		</layer>
		<layer id="124" name="Multiply_19013" type="Const" version="opset1">
			<data element_type="f32" shape="96, 96, 3, 3" offset="1757792" size="331776" />
			<output>
				<port id="0" precision="FP32">
					<dim>96</dim>
					<dim>96</dim>
					<dim>3</dim>
					<dim>3</dim>
				</port>
			</output>
		</layer>
		<layer id="125" name="Multiply_18559" type="Convolution" version="opset1">
			<data strides="1, 1" dilations="1, 1" pads_begin="1, 1" pads_end="1, 1" auto_pad="explicit" />
			<input>
				<port id="0" precision="FP32">
					<dim>-1</dim>
					<dim>96</dim>
					<dim>26</dim>
					<dim>26</dim>
				</port>
				<port id="1" precision="FP32">
					<dim>96</dim>
					<dim>96</dim>
					<dim>3</dim>
					<dim>3</dim>
				</port>
			</input>
			<output>
				<port id="2" precision="FP32">
					<dim>-1</dim>
					<dim>96</dim>
					<dim>26</dim>
					<dim>26</dim>
				</port>
			</output>
		</layer>
		<layer id="126" name="Constant_18564" type="Const" version="opset1">
			<data element_type="f32" shape="1, 96, 1, 1" offset="2089568" size="384" />
			<output>
				<port id="0" precision="FP32">
					<dim>1</dim>
					<dim>96</dim>
					<dim>1</dim>
					<dim>1</dim>
				</port>
			</output>
		</layer>
		<layer id="127" name="__module.model.backbone.stage3.1.blocks.1.conv2.bn/aten::batch_norm/BatchNormInference" type="Add" version="opset1">
			<data auto_broadcast="numpy" />
			<input>
				<port id="0" precision="FP32">
					<dim>-1</dim>
					<dim>96</dim>
					<dim>26</dim>
					<dim>26</dim>
				</port>
				<port id="1" precision="FP32">
					<dim>1</dim>
					<dim>96</dim>
					<dim>1</dim>
					<dim>1</dim>
				</port>
			</input>
			<output>
				<port id="2" precision="FP32" names="1028,x.51">
					<dim>-1</dim>
					<dim>96</dim>
					<dim>26</dim>
					<dim>26</dim>
				</port>
			</output>
		</layer>
		<layer id="128" name="__module.model.backbone.stage3.1.blocks.1.conv2.activation/aten::mul/Multiply" type="Swish" version="opset4">
			<input>
				<port id="0" precision="FP32">
					<dim>-1</dim>
					<dim>96</dim>
					<dim>26</dim>
					<dim>26</dim>
				</port>
			</input>
			<output>
				<port id="1" precision="FP32" names="1030,out.11">
					<dim>-1</dim>
					<dim>96</dim>
					<dim>26</dim>
					<dim>26</dim>
				</port>
			</output>
		</layer>
		<layer id="129" name="__module.model.backbone.stage3.1.blocks.1/aten::add/Add" type="Add" version="opset1">
			<data auto_broadcast="numpy" />
			<input>
				<port id="0" precision="FP32">
					<dim>-1</dim>
					<dim>96</dim>
					<dim>26</dim>
					<dim>26</dim>
				</port>
				<port id="1" precision="FP32">
					<dim>-1</dim>
					<dim>96</dim>
					<dim>26</dim>
					<dim>26</dim>
				</port>
			</input>
			<output>
				<port id="2" precision="FP32" names="1031,input.91">
					<dim>-1</dim>
					<dim>96</dim>
					<dim>26</dim>
					<dim>26</dim>
				</port>
			</output>
		</layer>
		<layer id="130" name="Multiply_19017" type="Const" version="opset1">
			<data element_type="f32" shape="96, 96, 1, 1" offset="2089952" size="36864" />
			<output>
				<port id="0" precision="FP32">
					<dim>96</dim>
					<dim>96</dim>
					<dim>1</dim>
					<dim>1</dim>
				</port>
			</output>
		</layer>
		<layer id="131" name="Multiply_18566" type="Convolution" version="opset1">
			<data strides="1, 1" dilations="1, 1" pads_begin="0, 0" pads_end="0, 0" auto_pad="explicit" />
			<input>
				<port id="0" precision="FP32">
					<dim>-1</dim>
					<dim>96</dim>
					<dim>26</dim>
					<dim>26</dim>
				</port>
				<port id="1" precision="FP32">
					<dim>96</dim>
					<dim>96</dim>
					<dim>1</dim>
					<dim>1</dim>
				</port>
			</input>
			<output>
				<port id="2" precision="FP32">
					<dim>-1</dim>
					<dim>96</dim>
					<dim>26</dim>
					<dim>26</dim>
				</port>
			</output>
		</layer>
		<layer id="132" name="Constant_18571" type="Const" version="opset1">
			<data element_type="f32" shape="1, 96, 1, 1" offset="2126816" size="384" />
			<output>
				<port id="0" precision="FP32">
					<dim>1</dim>
					<dim>96</dim>
					<dim>1</dim>
					<dim>1</dim>
				</port>
			</output>
		</layer>
		<layer id="133" name="__module.model.backbone.stage3.1.blocks.2.conv1.bn/aten::batch_norm/BatchNormInference" type="Add" version="opset1">
			<data auto_broadcast="numpy" />
			<input>
				<port id="0" precision="FP32">
					<dim>-1</dim>
					<dim>96</dim>
					<dim>26</dim>
					<dim>26</dim>
				</port>
				<port id="1" precision="FP32">
					<dim>1</dim>
					<dim>96</dim>
					<dim>1</dim>
					<dim>1</dim>
				</port>
			</input>
			<output>
				<port id="2" precision="FP32" names="1047,x.53">
					<dim>-1</dim>
					<dim>96</dim>
					<dim>26</dim>
					<dim>26</dim>
				</port>
			</output>
		</layer>
		<layer id="134" name="__module.model.backbone.stage3.1.blocks.2.conv1.activation/aten::mul/Multiply" type="Swish" version="opset4">
			<input>
				<port id="0" precision="FP32">
					<dim>-1</dim>
					<dim>96</dim>
					<dim>26</dim>
					<dim>26</dim>
				</port>
			</input>
			<output>
				<port id="1" precision="FP32" names="1049,input.95">
					<dim>-1</dim>
					<dim>96</dim>
					<dim>26</dim>
					<dim>26</dim>
				</port>
			</output>
		</layer>
		<layer id="135" name="Multiply_19021" type="Const" version="opset1">
			<data element_type="f32" shape="96, 96, 3, 3" offset="2127200" size="331776" />
			<output>
				<port id="0" precision="FP32">
					<dim>96</dim>
					<dim>96</dim>
					<dim>3</dim>
					<dim>3</dim>
				</port>
			</output>
		</layer>
		<layer id="136" name="Multiply_18573" type="Convolution" version="opset1">
			<data strides="1, 1" dilations="1, 1" pads_begin="1, 1" pads_end="1, 1" auto_pad="explicit" />
			<input>
				<port id="0" precision="FP32">
					<dim>-1</dim>
					<dim>96</dim>
					<dim>26</dim>
					<dim>26</dim>
				</port>
				<port id="1" precision="FP32">
					<dim>96</dim>
					<dim>96</dim>
					<dim>3</dim>
					<dim>3</dim>
				</port>
			</input>
			<output>
				<port id="2" precision="FP32">
					<dim>-1</dim>
					<dim>96</dim>
					<dim>26</dim>
					<dim>26</dim>
				</port>
			</output>
		</layer>
		<layer id="137" name="Constant_18578" type="Const" version="opset1">
			<data element_type="f32" shape="1, 96, 1, 1" offset="2458976" size="384" />
			<output>
				<port id="0" precision="FP32">
					<dim>1</dim>
					<dim>96</dim>
					<dim>1</dim>
					<dim>1</dim>
				</port>
			</output>
		</layer>
		<layer id="138" name="__module.model.backbone.stage3.1.blocks.2.conv2.bn/aten::batch_norm/BatchNormInference" type="Add" version="opset1">
			<data auto_broadcast="numpy" />
			<input>
				<port id="0" precision="FP32">
					<dim>-1</dim>
					<dim>96</dim>
					<dim>26</dim>
					<dim>26</dim>
				</port>
				<port id="1" precision="FP32">
					<dim>1</dim>
					<dim>96</dim>
					<dim>1</dim>
					<dim>1</dim>
				</port>
			</input>
			<output>
				<port id="2" precision="FP32" names="1063,x.55">
					<dim>-1</dim>
					<dim>96</dim>
					<dim>26</dim>
					<dim>26</dim>
				</port>
			</output>
		</layer>
		<layer id="139" name="__module.model.backbone.stage3.1.blocks.2.conv2.activation/aten::mul/Multiply" type="Swish" version="opset4">
			<input>
				<port id="0" precision="FP32">
					<dim>-1</dim>
					<dim>96</dim>
					<dim>26</dim>
					<dim>26</dim>
				</port>
			</input>
			<output>
				<port id="1" precision="FP32" names="1065,out">
					<dim>-1</dim>
					<dim>96</dim>
					<dim>26</dim>
					<dim>26</dim>
				</port>
			</output>
		</layer>
		<layer id="140" name="__module.model.backbone.stage3.1.blocks.2/aten::add/Add" type="Add" version="opset1">
			<data auto_broadcast="numpy" />
			<input>
				<port id="0" precision="FP32">
					<dim>-1</dim>
					<dim>96</dim>
					<dim>26</dim>
					<dim>26</dim>
				</port>
				<port id="1" precision="FP32">
					<dim>-1</dim>
					<dim>96</dim>
					<dim>26</dim>
					<dim>26</dim>
				</port>
			</input>
			<output>
				<port id="2" precision="FP32" names="1066,x_main.5">
					<dim>-1</dim>
					<dim>96</dim>
					<dim>26</dim>
					<dim>26</dim>
				</port>
			</output>
		</layer>
		<layer id="141" name="Multiply_19025" type="Const" version="opset1">
			<data element_type="f32" shape="96, 192, 1, 1" offset="2459360" size="73728" />
			<output>
				<port id="0" precision="FP32">
					<dim>96</dim>
					<dim>192</dim>
					<dim>1</dim>
					<dim>1</dim>
				</port>
			</output>
		</layer>
		<layer id="142" name="Multiply_18580" type="Convolution" version="opset1">
			<data strides="1, 1" dilations="1, 1" pads_begin="0, 0" pads_end="0, 0" auto_pad="explicit" />
			<input>
				<port id="0" precision="FP32">
					<dim>-1</dim>
					<dim>192</dim>
					<dim>26</dim>
					<dim>26</dim>
				</port>
				<port id="1" precision="FP32">
					<dim>96</dim>
					<dim>192</dim>
					<dim>1</dim>
					<dim>1</dim>
				</port>
			</input>
			<output>
				<port id="2" precision="FP32">
					<dim>-1</dim>
					<dim>96</dim>
					<dim>26</dim>
					<dim>26</dim>
				</port>
			</output>
		</layer>
		<layer id="143" name="Constant_18585" type="Const" version="opset1">
			<data element_type="f32" shape="1, 96, 1, 1" offset="2533088" size="384" />
			<output>
				<port id="0" precision="FP32">
					<dim>1</dim>
					<dim>96</dim>
					<dim>1</dim>
					<dim>1</dim>
				</port>
			</output>
		</layer>
		<layer id="144" name="__module.model.backbone.stage3.1.short_conv.bn/aten::batch_norm/BatchNormInference" type="Add" version="opset1">
			<data auto_broadcast="numpy" />
			<input>
				<port id="0" precision="FP32">
					<dim>-1</dim>
					<dim>96</dim>
					<dim>26</dim>
					<dim>26</dim>
				</port>
				<port id="1" precision="FP32">
					<dim>1</dim>
					<dim>96</dim>
					<dim>1</dim>
					<dim>1</dim>
				</port>
			</input>
			<output>
				<port id="2" precision="FP32" names="940,x.41">
					<dim>-1</dim>
					<dim>96</dim>
					<dim>26</dim>
					<dim>26</dim>
				</port>
			</output>
		</layer>
		<layer id="145" name="__module.model.backbone.stage3.1.short_conv.activation/aten::mul/Multiply" type="Swish" version="opset4">
			<input>
				<port id="0" precision="FP32">
					<dim>-1</dim>
					<dim>96</dim>
					<dim>26</dim>
					<dim>26</dim>
				</port>
			</input>
			<output>
				<port id="1" precision="FP32" names="942,x_short.5">
					<dim>-1</dim>
					<dim>96</dim>
					<dim>26</dim>
					<dim>26</dim>
				</port>
			</output>
		</layer>
		<layer id="146" name="__module.model.backbone.stage3.1/aten::cat/Concat" type="Concat" version="opset1">
			<data axis="1" />
			<input>
				<port id="0" precision="FP32">
					<dim>-1</dim>
					<dim>96</dim>
					<dim>26</dim>
					<dim>26</dim>
				</port>
				<port id="1" precision="FP32">
					<dim>-1</dim>
					<dim>96</dim>
					<dim>26</dim>
					<dim>26</dim>
				</port>
			</input>
			<output>
				<port id="2" precision="FP32" names="1068,input.99">
					<dim>-1</dim>
					<dim>192</dim>
					<dim>26</dim>
					<dim>26</dim>
				</port>
			</output>
		</layer>
		<layer id="147" name="Multiply_19029" type="Const" version="opset1">
			<data element_type="f32" shape="192, 192, 1, 1" offset="2533472" size="147456" />
			<output>
				<port id="0" precision="FP32">
					<dim>192</dim>
					<dim>192</dim>
					<dim>1</dim>
					<dim>1</dim>
				</port>
			</output>
		</layer>
		<layer id="148" name="Multiply_18587" type="Convolution" version="opset1">
			<data strides="1, 1" dilations="1, 1" pads_begin="0, 0" pads_end="0, 0" auto_pad="explicit" />
			<input>
				<port id="0" precision="FP32">
					<dim>-1</dim>
					<dim>192</dim>
					<dim>26</dim>
					<dim>26</dim>
				</port>
				<port id="1" precision="FP32">
					<dim>192</dim>
					<dim>192</dim>
					<dim>1</dim>
					<dim>1</dim>
				</port>
			</input>
			<output>
				<port id="2" precision="FP32">
					<dim>-1</dim>
					<dim>192</dim>
					<dim>26</dim>
					<dim>26</dim>
				</port>
			</output>
		</layer>
		<layer id="149" name="Constant_18592" type="Const" version="opset1">
			<data element_type="f32" shape="1, 192, 1, 1" offset="2680928" size="768" />
			<output>
				<port id="0" precision="FP32">
					<dim>1</dim>
					<dim>192</dim>
					<dim>1</dim>
					<dim>1</dim>
				</port>
			</output>
		</layer>
		<layer id="150" name="__module.model.backbone.stage3.1.final_conv.bn/aten::batch_norm/BatchNormInference" type="Add" version="opset1">
			<data auto_broadcast="numpy" />
			<input>
				<port id="0" precision="FP32">
					<dim>-1</dim>
					<dim>192</dim>
					<dim>26</dim>
					<dim>26</dim>
				</port>
				<port id="1" precision="FP32">
					<dim>1</dim>
					<dim>192</dim>
					<dim>1</dim>
					<dim>1</dim>
				</port>
			</input>
			<output>
				<port id="2" precision="FP32" names="1082,x.57">
					<dim>-1</dim>
					<dim>192</dim>
					<dim>26</dim>
					<dim>26</dim>
				</port>
			</output>
		</layer>
		<layer id="151" name="__module.model.backbone.stage3.1.final_conv.activation/aten::mul/Multiply" type="Swish" version="opset4">
			<input>
				<port id="0" precision="FP32">
					<dim>-1</dim>
					<dim>192</dim>
					<dim>26</dim>
					<dim>26</dim>
				</port>
			</input>
			<output>
				<port id="1" precision="FP32" names="10,1084,input.103">
					<dim>-1</dim>
					<dim>192</dim>
					<dim>26</dim>
					<dim>26</dim>
				</port>
			</output>
		</layer>
		<layer id="152" name="Multiply_19033" type="Const" version="opset1">
			<data element_type="f32" shape="384, 192, 3, 3" offset="2681696" size="2654208" />
			<output>
				<port id="0" precision="FP32">
					<dim>384</dim>
					<dim>192</dim>
					<dim>3</dim>
					<dim>3</dim>
				</port>
			</output>
		</layer>
		<layer id="153" name="Multiply_18594" type="Convolution" version="opset1">
			<data strides="2, 2" dilations="1, 1" pads_begin="1, 1" pads_end="1, 1" auto_pad="explicit" />
			<input>
				<port id="0" precision="FP32">
					<dim>-1</dim>
					<dim>192</dim>
					<dim>26</dim>
					<dim>26</dim>
				</port>
				<port id="1" precision="FP32">
					<dim>384</dim>
					<dim>192</dim>
					<dim>3</dim>
					<dim>3</dim>
				</port>
			</input>
			<output>
				<port id="2" precision="FP32">
					<dim>-1</dim>
					<dim>384</dim>
					<dim>13</dim>
					<dim>13</dim>
				</port>
			</output>
		</layer>
		<layer id="154" name="Constant_18599" type="Const" version="opset1">
			<data element_type="f32" shape="1, 384, 1, 1" offset="5335904" size="1536" />
			<output>
				<port id="0" precision="FP32">
					<dim>1</dim>
					<dim>384</dim>
					<dim>1</dim>
					<dim>1</dim>
				</port>
			</output>
		</layer>
		<layer id="155" name="__module.model.backbone.stage4.0.bn/aten::batch_norm/BatchNormInference" type="Add" version="opset1">
			<data auto_broadcast="numpy" />
			<input>
				<port id="0" precision="FP32">
					<dim>-1</dim>
					<dim>384</dim>
					<dim>13</dim>
					<dim>13</dim>
				</port>
				<port id="1" precision="FP32">
					<dim>1</dim>
					<dim>384</dim>
					<dim>1</dim>
					<dim>1</dim>
				</port>
			</input>
			<output>
				<port id="2" precision="FP32" names="1101,x.59">
					<dim>-1</dim>
					<dim>384</dim>
					<dim>13</dim>
					<dim>13</dim>
				</port>
			</output>
		</layer>
		<layer id="156" name="__module.model.backbone.stage4.0.activation/aten::mul/Multiply" type="Swish" version="opset4">
			<input>
				<port id="0" precision="FP32">
					<dim>-1</dim>
					<dim>384</dim>
					<dim>13</dim>
					<dim>13</dim>
				</port>
			</input>
			<output>
				<port id="1" precision="FP32" names="1103,input.107">
					<dim>-1</dim>
					<dim>384</dim>
					<dim>13</dim>
					<dim>13</dim>
				</port>
			</output>
		</layer>
		<layer id="157" name="Multiply_19037" type="Const" version="opset1">
			<data element_type="f32" shape="192, 384, 1, 1" offset="5337440" size="294912" />
			<output>
				<port id="0" precision="FP32">
					<dim>192</dim>
					<dim>384</dim>
					<dim>1</dim>
					<dim>1</dim>
				</port>
			</output>
		</layer>
		<layer id="158" name="Multiply_18601" type="Convolution" version="opset1">
			<data strides="1, 1" dilations="1, 1" pads_begin="0, 0" pads_end="0, 0" auto_pad="explicit" />
			<input>
				<port id="0" precision="FP32">
					<dim>-1</dim>
					<dim>384</dim>
					<dim>13</dim>
					<dim>13</dim>
				</port>
				<port id="1" precision="FP32">
					<dim>192</dim>
					<dim>384</dim>
					<dim>1</dim>
					<dim>1</dim>
				</port>
			</input>
			<output>
				<port id="2" precision="FP32">
					<dim>-1</dim>
					<dim>192</dim>
					<dim>13</dim>
					<dim>13</dim>
				</port>
			</output>
		</layer>
		<layer id="159" name="Constant_18606" type="Const" version="opset1">
			<data element_type="f32" shape="1, 192, 1, 1" offset="5632352" size="768" />
			<output>
				<port id="0" precision="FP32">
					<dim>1</dim>
					<dim>192</dim>
					<dim>1</dim>
					<dim>1</dim>
				</port>
			</output>
		</layer>
		<layer id="160" name="__module.model.backbone.stage4.1.conv1.bn/aten::batch_norm/BatchNormInference" type="Add" version="opset1">
			<data auto_broadcast="numpy" />
			<input>
				<port id="0" precision="FP32">
					<dim>-1</dim>
					<dim>192</dim>
					<dim>13</dim>
					<dim>13</dim>
				</port>
				<port id="1" precision="FP32">
					<dim>1</dim>
					<dim>192</dim>
					<dim>1</dim>
					<dim>1</dim>
				</port>
			</input>
			<output>
				<port id="2" precision="FP32" names="1125,x.61">
					<dim>-1</dim>
					<dim>192</dim>
					<dim>13</dim>
					<dim>13</dim>
				</port>
			</output>
		</layer>
		<layer id="161" name="__module.model.backbone.stage4.1.conv1.activation/aten::mul/Multiply" type="Swish" version="opset4">
			<input>
				<port id="0" precision="FP32">
					<dim>-1</dim>
					<dim>192</dim>
					<dim>13</dim>
					<dim>13</dim>
				</port>
			</input>
			<output>
				<port id="1" precision="FP32" names="1127,input.111">
					<dim>-1</dim>
					<dim>192</dim>
					<dim>13</dim>
					<dim>13</dim>
				</port>
			</output>
		</layer>
		<layer id="162" name="__module.model.backbone.stage4.1.poolings.0/aten::max_pool2d/MaxPool" type="MaxPool" version="opset14">
			<data strides="1, 1" dilations="1, 1" pads_begin="2, 2" pads_end="2, 2" kernel="5, 5" rounding_type="floor" auto_pad="explicit" index_element_type="i64" axis="2" />
			<input>
				<port id="0" precision="FP32">
					<dim>-1</dim>
					<dim>192</dim>
					<dim>13</dim>
					<dim>13</dim>
				</port>
			</input>
			<output>
				<port id="1" precision="FP32" names="1132">
					<dim>-1</dim>
					<dim>192</dim>
					<dim>13</dim>
					<dim>13</dim>
				</port>
				<port id="2" precision="I64">
					<dim>-1</dim>
					<dim>192</dim>
					<dim>13</dim>
					<dim>13</dim>
				</port>
			</output>
		</layer>
		<layer id="163" name="__module.model.backbone.stage4.1.poolings.1/aten::max_pool2d/MaxPool" type="MaxPool" version="opset14">
			<data strides="1, 1" dilations="1, 1" pads_begin="4, 4" pads_end="4, 4" kernel="9, 9" rounding_type="floor" auto_pad="explicit" index_element_type="i64" axis="2" />
			<input>
				<port id="0" precision="FP32">
					<dim>-1</dim>
					<dim>192</dim>
					<dim>13</dim>
					<dim>13</dim>
				</port>
			</input>
			<output>
				<port id="1" precision="FP32" names="1137">
					<dim>-1</dim>
					<dim>192</dim>
					<dim>13</dim>
					<dim>13</dim>
				</port>
				<port id="2" precision="I64">
					<dim>-1</dim>
					<dim>192</dim>
					<dim>13</dim>
					<dim>13</dim>
				</port>
			</output>
		</layer>
		<layer id="164" name="__module.model.backbone.stage4.1.poolings.2/aten::max_pool2d/MaxPool" type="MaxPool" version="opset14">
			<data strides="1, 1" dilations="1, 1" pads_begin="6, 6" pads_end="6, 6" kernel="13, 13" rounding_type="floor" auto_pad="explicit" index_element_type="i64" axis="2" />
			<input>
				<port id="0" precision="FP32">
					<dim>-1</dim>
					<dim>192</dim>
					<dim>13</dim>
					<dim>13</dim>
				</port>
			</input>
			<output>
				<port id="1" precision="FP32" names="1142">
					<dim>-1</dim>
					<dim>192</dim>
					<dim>13</dim>
					<dim>13</dim>
				</port>
				<port id="2" precision="I64">
					<dim>-1</dim>
					<dim>192</dim>
					<dim>13</dim>
					<dim>13</dim>
				</port>
			</output>
		</layer>
		<layer id="165" name="__module.model.backbone.stage4.1/aten::cat/Concat" type="Concat" version="opset1">
			<data axis="1" />
			<input>
				<port id="0" precision="FP32">
					<dim>-1</dim>
					<dim>192</dim>
					<dim>13</dim>
					<dim>13</dim>
				</port>
				<port id="1" precision="FP32">
					<dim>-1</dim>
					<dim>192</dim>
					<dim>13</dim>
					<dim>13</dim>
				</port>
				<port id="2" precision="FP32">
					<dim>-1</dim>
					<dim>192</dim>
					<dim>13</dim>
					<dim>13</dim>
				</port>
				<port id="3" precision="FP32">
					<dim>-1</dim>
					<dim>192</dim>
					<dim>13</dim>
					<dim>13</dim>
				</port>
			</input>
			<output>
				<port id="4" precision="FP32" names="1144,input.113">
					<dim>-1</dim>
					<dim>768</dim>
					<dim>13</dim>
					<dim>13</dim>
				</port>
			</output>
		</layer>
		<layer id="166" name="Multiply_19041" type="Const" version="opset1">
			<data element_type="f32" shape="384, 768, 1, 1" offset="5633120" size="1179648" />
			<output>
				<port id="0" precision="FP32">
					<dim>384</dim>
					<dim>768</dim>
					<dim>1</dim>
					<dim>1</dim>
				</port>
			</output>
		</layer>
		<layer id="167" name="Multiply_18608" type="Convolution" version="opset1">
			<data strides="1, 1" dilations="1, 1" pads_begin="0, 0" pads_end="0, 0" auto_pad="explicit" />
			<input>
				<port id="0" precision="FP32">
					<dim>-1</dim>
					<dim>768</dim>
					<dim>13</dim>
					<dim>13</dim>
				</port>
				<port id="1" precision="FP32">
					<dim>384</dim>
					<dim>768</dim>
					<dim>1</dim>
					<dim>1</dim>
				</port>
			</input>
			<output>
				<port id="2" precision="FP32">
					<dim>-1</dim>
					<dim>384</dim>
					<dim>13</dim>
					<dim>13</dim>
				</port>
			</output>
		</layer>
		<layer id="168" name="Constant_18613" type="Const" version="opset1">
			<data element_type="f32" shape="1, 384, 1, 1" offset="6812768" size="1536" />
			<output>
				<port id="0" precision="FP32">
					<dim>1</dim>
					<dim>384</dim>
					<dim>1</dim>
					<dim>1</dim>
				</port>
			</output>
		</layer>
		<layer id="169" name="__module.model.backbone.stage4.1.conv2.bn/aten::batch_norm/BatchNormInference" type="Add" version="opset1">
			<data auto_broadcast="numpy" />
			<input>
				<port id="0" precision="FP32">
					<dim>-1</dim>
					<dim>384</dim>
					<dim>13</dim>
					<dim>13</dim>
				</port>
				<port id="1" precision="FP32">
					<dim>1</dim>
					<dim>384</dim>
					<dim>1</dim>
					<dim>1</dim>
				</port>
			</input>
			<output>
				<port id="2" precision="FP32" names="1158,x.63">
					<dim>-1</dim>
					<dim>384</dim>
					<dim>13</dim>
					<dim>13</dim>
				</port>
			</output>
		</layer>
		<layer id="170" name="__module.model.backbone.stage4.1.conv2.activation/aten::mul/Multiply" type="Swish" version="opset4">
			<input>
				<port id="0" precision="FP32">
					<dim>-1</dim>
					<dim>384</dim>
					<dim>13</dim>
					<dim>13</dim>
				</port>
			</input>
			<output>
				<port id="1" precision="FP32" names="1160,input.117">
					<dim>-1</dim>
					<dim>384</dim>
					<dim>13</dim>
					<dim>13</dim>
				</port>
			</output>
		</layer>
		<layer id="171" name="Multiply_19045" type="Const" version="opset1">
			<data element_type="f32" shape="192, 384, 1, 1" offset="6814304" size="294912" />
			<output>
				<port id="0" precision="FP32">
					<dim>192</dim>
					<dim>384</dim>
					<dim>1</dim>
					<dim>1</dim>
				</port>
			</output>
		</layer>
		<layer id="172" name="Multiply_18615" type="Convolution" version="opset1">
			<data strides="1, 1" dilations="1, 1" pads_begin="0, 0" pads_end="0, 0" auto_pad="explicit" />
			<input>
				<port id="0" precision="FP32">
					<dim>-1</dim>
					<dim>384</dim>
					<dim>13</dim>
					<dim>13</dim>
				</port>
				<port id="1" precision="FP32">
					<dim>192</dim>
					<dim>384</dim>
					<dim>1</dim>
					<dim>1</dim>
				</port>
			</input>
			<output>
				<port id="2" precision="FP32">
					<dim>-1</dim>
					<dim>192</dim>
					<dim>13</dim>
					<dim>13</dim>
				</port>
			</output>
		</layer>
		<layer id="173" name="Constant_18620" type="Const" version="opset1">
			<data element_type="f32" shape="1, 192, 1, 1" offset="7109216" size="768" />
			<output>
				<port id="0" precision="FP32">
					<dim>1</dim>
					<dim>192</dim>
					<dim>1</dim>
					<dim>1</dim>
				</port>
			</output>
		</layer>
		<layer id="174" name="__module.model.backbone.stage4.2.main_conv.bn/aten::batch_norm/BatchNormInference" type="Add" version="opset1">
			<data auto_broadcast="numpy" />
			<input>
				<port id="0" precision="FP32">
					<dim>-1</dim>
					<dim>192</dim>
					<dim>13</dim>
					<dim>13</dim>
				</port>
				<port id="1" precision="FP32">
					<dim>1</dim>
					<dim>192</dim>
					<dim>1</dim>
					<dim>1</dim>
				</port>
			</input>
			<output>
				<port id="2" precision="FP32" names="1194,x.67">
					<dim>-1</dim>
					<dim>192</dim>
					<dim>13</dim>
					<dim>13</dim>
				</port>
			</output>
		</layer>
		<layer id="175" name="__module.model.backbone.stage4.2.main_conv.activation/aten::mul/Multiply" type="Swish" version="opset4">
			<input>
				<port id="0" precision="FP32">
					<dim>-1</dim>
					<dim>192</dim>
					<dim>13</dim>
					<dim>13</dim>
				</port>
			</input>
			<output>
				<port id="1" precision="FP32" names="1196,input.123">
					<dim>-1</dim>
					<dim>192</dim>
					<dim>13</dim>
					<dim>13</dim>
				</port>
			</output>
		</layer>
		<layer id="176" name="Multiply_19049" type="Const" version="opset1">
			<data element_type="f32" shape="192, 192, 1, 1" offset="7109984" size="147456" />
			<output>
				<port id="0" precision="FP32">
					<dim>192</dim>
					<dim>192</dim>
					<dim>1</dim>
					<dim>1</dim>
				</port>
			</output>
		</layer>
		<layer id="177" name="Multiply_18622" type="Convolution" version="opset1">
			<data strides="1, 1" dilations="1, 1" pads_begin="0, 0" pads_end="0, 0" auto_pad="explicit" />
			<input>
				<port id="0" precision="FP32">
					<dim>-1</dim>
					<dim>192</dim>
					<dim>13</dim>
					<dim>13</dim>
				</port>
				<port id="1" precision="FP32">
					<dim>192</dim>
					<dim>192</dim>
					<dim>1</dim>
					<dim>1</dim>
				</port>
			</input>
			<output>
				<port id="2" precision="FP32">
					<dim>-1</dim>
					<dim>192</dim>
					<dim>13</dim>
					<dim>13</dim>
				</port>
			</output>
		</layer>
		<layer id="178" name="Constant_18627" type="Const" version="opset1">
			<data element_type="f32" shape="1, 192, 1, 1" offset="7257440" size="768" />
			<output>
				<port id="0" precision="FP32">
					<dim>1</dim>
					<dim>192</dim>
					<dim>1</dim>
					<dim>1</dim>
				</port>
			</output>
		</layer>
		<layer id="179" name="__module.model.backbone.stage4.2.blocks.0.conv1.bn/aten::batch_norm/BatchNormInference" type="Add" version="opset1">
			<data auto_broadcast="numpy" />
			<input>
				<port id="0" precision="FP32">
					<dim>-1</dim>
					<dim>192</dim>
					<dim>13</dim>
					<dim>13</dim>
				</port>
				<port id="1" precision="FP32">
					<dim>1</dim>
					<dim>192</dim>
					<dim>1</dim>
					<dim>1</dim>
				</port>
			</input>
			<output>
				<port id="2" precision="FP32" names="1213,x.69">
					<dim>-1</dim>
					<dim>192</dim>
					<dim>13</dim>
					<dim>13</dim>
				</port>
			</output>
		</layer>
		<layer id="180" name="__module.model.backbone.stage4.2.blocks.0.conv1.activation/aten::mul/Multiply" type="Swish" version="opset4">
			<input>
				<port id="0" precision="FP32">
					<dim>-1</dim>
					<dim>192</dim>
					<dim>13</dim>
					<dim>13</dim>
				</port>
			</input>
			<output>
				<port id="1" precision="FP32" names="1215,input.127">
					<dim>-1</dim>
					<dim>192</dim>
					<dim>13</dim>
					<dim>13</dim>
				</port>
			</output>
		</layer>
		<layer id="181" name="Multiply_19053" type="Const" version="opset1">
			<data element_type="f32" shape="192, 192, 3, 3" offset="7258208" size="1327104" />
			<output>
				<port id="0" precision="FP32">
					<dim>192</dim>
					<dim>192</dim>
					<dim>3</dim>
					<dim>3</dim>
				</port>
			</output>
		</layer>
		<layer id="182" name="Multiply_18629" type="Convolution" version="opset1">
			<data strides="1, 1" dilations="1, 1" pads_begin="1, 1" pads_end="1, 1" auto_pad="explicit" />
			<input>
				<port id="0" precision="FP32">
					<dim>-1</dim>
					<dim>192</dim>
					<dim>13</dim>
					<dim>13</dim>
				</port>
				<port id="1" precision="FP32">
					<dim>192</dim>
					<dim>192</dim>
					<dim>3</dim>
					<dim>3</dim>
				</port>
			</input>
			<output>
				<port id="2" precision="FP32">
					<dim>-1</dim>
					<dim>192</dim>
					<dim>13</dim>
					<dim>13</dim>
				</port>
			</output>
		</layer>
		<layer id="183" name="Constant_18634" type="Const" version="opset1">
			<data element_type="f32" shape="1, 192, 1, 1" offset="8585312" size="768" />
			<output>
				<port id="0" precision="FP32">
					<dim>1</dim>
					<dim>192</dim>
					<dim>1</dim>
					<dim>1</dim>
				</port>
			</output>
		</layer>
		<layer id="184" name="__module.model.backbone.stage4.2.blocks.0.conv2.bn/aten::batch_norm/BatchNormInference" type="Add" version="opset1">
			<data auto_broadcast="numpy" />
			<input>
				<port id="0" precision="FP32">
					<dim>-1</dim>
					<dim>192</dim>
					<dim>13</dim>
					<dim>13</dim>
				</port>
				<port id="1" precision="FP32">
					<dim>1</dim>
					<dim>192</dim>
					<dim>1</dim>
					<dim>1</dim>
				</port>
			</input>
			<output>
				<port id="2" precision="FP32" names="1229,x.71">
					<dim>-1</dim>
					<dim>192</dim>
					<dim>13</dim>
					<dim>13</dim>
				</port>
			</output>
		</layer>
		<layer id="185" name="__module.model.backbone.stage4.2.blocks.0.conv2.activation/aten::mul/Multiply" type="Swish" version="opset4">
			<input>
				<port id="0" precision="FP32">
					<dim>-1</dim>
					<dim>192</dim>
					<dim>13</dim>
					<dim>13</dim>
				</port>
			</input>
			<output>
				<port id="1" precision="FP32" names="1231,x_main.7">
					<dim>-1</dim>
					<dim>192</dim>
					<dim>13</dim>
					<dim>13</dim>
				</port>
			</output>
		</layer>
		<layer id="186" name="Multiply_19057" type="Const" version="opset1">
			<data element_type="f32" shape="192, 384, 1, 1" offset="8586080" size="294912" />
			<output>
				<port id="0" precision="FP32">
					<dim>192</dim>
					<dim>384</dim>
					<dim>1</dim>
					<dim>1</dim>
				</port>
			</output>
		</layer>
		<layer id="187" name="Multiply_18636" type="Convolution" version="opset1">
			<data strides="1, 1" dilations="1, 1" pads_begin="0, 0" pads_end="0, 0" auto_pad="explicit" />
			<input>
				<port id="0" precision="FP32">
					<dim>-1</dim>
					<dim>384</dim>
					<dim>13</dim>
					<dim>13</dim>
				</port>
				<port id="1" precision="FP32">
					<dim>192</dim>
					<dim>384</dim>
					<dim>1</dim>
					<dim>1</dim>
				</port>
			</input>
			<output>
				<port id="2" precision="FP32">
					<dim>-1</dim>
					<dim>192</dim>
					<dim>13</dim>
					<dim>13</dim>
				</port>
			</output>
		</layer>
		<layer id="188" name="Constant_18641" type="Const" version="opset1">
			<data element_type="f32" shape="1, 192, 1, 1" offset="8880992" size="768" />
			<output>
				<port id="0" precision="FP32">
					<dim>1</dim>
					<dim>192</dim>
					<dim>1</dim>
					<dim>1</dim>
				</port>
			</output>
		</layer>
		<layer id="189" name="__module.model.backbone.stage4.2.short_conv.bn/aten::batch_norm/BatchNormInference" type="Add" version="opset1">
			<data auto_broadcast="numpy" />
			<input>
				<port id="0" precision="FP32">
					<dim>-1</dim>
					<dim>192</dim>
					<dim>13</dim>
					<dim>13</dim>
				</port>
				<port id="1" precision="FP32">
					<dim>1</dim>
					<dim>192</dim>
					<dim>1</dim>
					<dim>1</dim>
				</port>
			</input>
			<output>
				<port id="2" precision="FP32" names="1178,x.65">
					<dim>-1</dim>
					<dim>192</dim>
					<dim>13</dim>
					<dim>13</dim>
				</port>
			</output>
		</layer>
		<layer id="190" name="__module.model.backbone.stage4.2.short_conv.activation/aten::mul/Multiply" type="Swish" version="opset4">
			<input>
				<port id="0" precision="FP32">
					<dim>-1</dim>
					<dim>192</dim>
					<dim>13</dim>
					<dim>13</dim>
				</port>
			</input>
			<output>
				<port id="1" precision="FP32" names="1180,x_short.7">
					<dim>-1</dim>
					<dim>192</dim>
					<dim>13</dim>
					<dim>13</dim>
				</port>
			</output>
		</layer>
		<layer id="191" name="__module.model.backbone.stage4.2/aten::cat/Concat" type="Concat" version="opset1">
			<data axis="1" />
			<input>
				<port id="0" precision="FP32">
					<dim>-1</dim>
					<dim>192</dim>
					<dim>13</dim>
					<dim>13</dim>
				</port>
				<port id="1" precision="FP32">
					<dim>-1</dim>
					<dim>192</dim>
					<dim>13</dim>
					<dim>13</dim>
				</port>
			</input>
			<output>
				<port id="2" precision="FP32" names="1233,input.131">
					<dim>-1</dim>
					<dim>384</dim>
					<dim>13</dim>
					<dim>13</dim>
				</port>
			</output>
		</layer>
		<layer id="192" name="Multiply_19061" type="Const" version="opset1">
			<data element_type="f32" shape="384, 384, 1, 1" offset="8881760" size="589824" />
			<output>
				<port id="0" precision="FP32">
					<dim>384</dim>
					<dim>384</dim>
					<dim>1</dim>
					<dim>1</dim>
				</port>
			</output>
		</layer>
		<layer id="193" name="Multiply_18643" type="Convolution" version="opset1">
			<data strides="1, 1" dilations="1, 1" pads_begin="0, 0" pads_end="0, 0" auto_pad="explicit" />
			<input>
				<port id="0" precision="FP32">
					<dim>-1</dim>
					<dim>384</dim>
					<dim>13</dim>
					<dim>13</dim>
				</port>
				<port id="1" precision="FP32">
					<dim>384</dim>
					<dim>384</dim>
					<dim>1</dim>
					<dim>1</dim>
				</port>
			</input>
			<output>
				<port id="2" precision="FP32">
					<dim>-1</dim>
					<dim>384</dim>
					<dim>13</dim>
					<dim>13</dim>
				</port>
			</output>
		</layer>
		<layer id="194" name="Constant_18648" type="Const" version="opset1">
			<data element_type="f32" shape="1, 384, 1, 1" offset="9471584" size="1536" />
			<output>
				<port id="0" precision="FP32">
					<dim>1</dim>
					<dim>384</dim>
					<dim>1</dim>
					<dim>1</dim>
				</port>
			</output>
		</layer>
		<layer id="195" name="__module.model.backbone.stage4.2.final_conv.bn/aten::batch_norm/BatchNormInference" type="Add" version="opset1">
			<data auto_broadcast="numpy" />
			<input>
				<port id="0" precision="FP32">
					<dim>-1</dim>
					<dim>384</dim>
					<dim>13</dim>
					<dim>13</dim>
				</port>
				<port id="1" precision="FP32">
					<dim>1</dim>
					<dim>384</dim>
					<dim>1</dim>
					<dim>1</dim>
				</port>
			</input>
			<output>
				<port id="2" precision="FP32" names="1247,x.73">
					<dim>-1</dim>
					<dim>384</dim>
					<dim>13</dim>
					<dim>13</dim>
				</port>
			</output>
		</layer>
		<layer id="196" name="__module.model.backbone.stage4.2.final_conv.activation/aten::mul/Multiply" type="Swish" version="opset4">
			<input>
				<port id="0" precision="FP32">
					<dim>-1</dim>
					<dim>384</dim>
					<dim>13</dim>
					<dim>13</dim>
				</port>
			</input>
			<output>
				<port id="1" precision="FP32" names="1249,9,input.135">
					<dim>-1</dim>
					<dim>384</dim>
					<dim>13</dim>
					<dim>13</dim>
				</port>
			</output>
		</layer>
		<layer id="197" name="Multiply_19065" type="Const" version="opset1">
			<data element_type="f32" shape="192, 384, 1, 1" offset="9473120" size="294912" />
			<output>
				<port id="0" precision="FP32">
					<dim>192</dim>
					<dim>384</dim>
					<dim>1</dim>
					<dim>1</dim>
				</port>
			</output>
		</layer>
		<layer id="198" name="Multiply_18650" type="Convolution" version="opset1">
			<data strides="1, 1" dilations="1, 1" pads_begin="0, 0" pads_end="0, 0" auto_pad="explicit" />
			<input>
				<port id="0" precision="FP32">
					<dim>-1</dim>
					<dim>384</dim>
					<dim>13</dim>
					<dim>13</dim>
				</port>
				<port id="1" precision="FP32">
					<dim>192</dim>
					<dim>384</dim>
					<dim>1</dim>
					<dim>1</dim>
				</port>
			</input>
			<output>
				<port id="2" precision="FP32">
					<dim>-1</dim>
					<dim>192</dim>
					<dim>13</dim>
					<dim>13</dim>
				</port>
			</output>
		</layer>
		<layer id="199" name="Constant_18655" type="Const" version="opset1">
			<data element_type="f32" shape="1, 192, 1, 1" offset="9768032" size="768" />
			<output>
				<port id="0" precision="FP32">
					<dim>1</dim>
					<dim>192</dim>
					<dim>1</dim>
					<dim>1</dim>
				</port>
			</output>
		</layer>
		<layer id="200" name="__module.model.neck.reduce_layers.0.bn/aten::batch_norm/BatchNormInference" type="Add" version="opset1">
			<data auto_broadcast="numpy" />
			<input>
				<port id="0" precision="FP32">
					<dim>-1</dim>
					<dim>192</dim>
					<dim>13</dim>
					<dim>13</dim>
				</port>
				<port id="1" precision="FP32">
					<dim>1</dim>
					<dim>192</dim>
					<dim>1</dim>
					<dim>1</dim>
				</port>
			</input>
			<output>
				<port id="2" precision="FP32" names="1296,x.75">
					<dim>-1</dim>
					<dim>192</dim>
					<dim>13</dim>
					<dim>13</dim>
				</port>
			</output>
		</layer>
		<layer id="201" name="__module.model.neck.reduce_layers.0.activation/aten::mul/Multiply" type="Swish" version="opset4">
			<input>
				<port id="0" precision="FP32">
					<dim>-1</dim>
					<dim>192</dim>
					<dim>13</dim>
					<dim>13</dim>
				</port>
			</input>
			<output>
				<port id="1" precision="FP32" names="1298,input.139">
					<dim>-1</dim>
					<dim>192</dim>
					<dim>13</dim>
					<dim>13</dim>
				</port>
			</output>
		</layer>
		<layer id="202" name="__module.model.neck.upsample/aten::upsample_nearest2d/Multiply" type="Const" version="opset1">
			<data element_type="f32" shape="2" offset="9768800" size="8" />
			<output>
				<port id="0" precision="FP32">
					<dim>2</dim>
				</port>
			</output>
		</layer>
		<layer id="203" name="Constant_2746" type="Const" version="opset1">
			<data element_type="i32" shape="2" offset="9768808" size="8" />
			<output>
				<port id="0" precision="I32">
					<dim>2</dim>
				</port>
			</output>
		</layer>
		<layer id="204" name="__module.model.neck.upsample/aten::upsample_nearest2d/Interpolate" type="Interpolate" version="opset11">
			<data mode="nearest" shape_calculation_mode="scales" coordinate_transformation_mode="asymmetric" nearest_mode="floor" antialias="false" pads_begin="0, 0, 0, 0" pads_end="0, 0, 0, 0" cube_coeff="-0.75" />
			<input>
				<port id="0" precision="FP32">
					<dim>-1</dim>
					<dim>192</dim>
					<dim>13</dim>
					<dim>13</dim>
				</port>
				<port id="1" precision="FP32">
					<dim>2</dim>
				</port>
				<port id="2" precision="I32">
					<dim>2</dim>
				</port>
			</input>
			<output>
				<port id="3" precision="FP32" names="1300,upsample_feat.1">
					<dim>-1</dim>
					<dim>192</dim>
					<dim>26</dim>
					<dim>26</dim>
				</port>
			</output>
		</layer>
		<layer id="205" name="__module.model.neck/aten::cat/Concat" type="Concat" version="opset1">
			<data axis="1" />
			<input>
				<port id="0" precision="FP32">
					<dim>-1</dim>
					<dim>192</dim>
					<dim>26</dim>
					<dim>26</dim>
				</port>
				<port id="1" precision="FP32">
					<dim>-1</dim>
					<dim>192</dim>
					<dim>26</dim>
					<dim>26</dim>
				</port>
			</input>
			<output>
				<port id="2" precision="FP32" names="1302,input.141">
					<dim>-1</dim>
					<dim>384</dim>
					<dim>26</dim>
					<dim>26</dim>
				</port>
			</output>
		</layer>
		<layer id="206" name="Multiply_19069" type="Const" version="opset1">
			<data element_type="f32" shape="96, 384, 1, 1" offset="9768816" size="147456" />
			<output>
				<port id="0" precision="FP32">
					<dim>96</dim>
					<dim>384</dim>
					<dim>1</dim>
					<dim>1</dim>
				</port>
			</output>
		</layer>
		<layer id="207" name="Multiply_18657" type="Convolution" version="opset1">
			<data strides="1, 1" dilations="1, 1" pads_begin="0, 0" pads_end="0, 0" auto_pad="explicit" />
			<input>
				<port id="0" precision="FP32">
					<dim>-1</dim>
					<dim>384</dim>
					<dim>26</dim>
					<dim>26</dim>
				</port>
				<port id="1" precision="FP32">
					<dim>96</dim>
					<dim>384</dim>
					<dim>1</dim>
					<dim>1</dim>
				</port>
			</input>
			<output>
				<port id="2" precision="FP32">
					<dim>-1</dim>
					<dim>96</dim>
					<dim>26</dim>
					<dim>26</dim>
				</port>
			</output>
		</layer>
		<layer id="208" name="Constant_18662" type="Const" version="opset1">
			<data element_type="f32" shape="1, 96, 1, 1" offset="9916272" size="384" />
			<output>
				<port id="0" precision="FP32">
					<dim>1</dim>
					<dim>96</dim>
					<dim>1</dim>
					<dim>1</dim>
				</port>
			</output>
		</layer>
		<layer id="209" name="__module.model.neck.top_down_blocks.0.main_conv.bn/aten::batch_norm/BatchNormInference" type="Add" version="opset1">
			<data auto_broadcast="numpy" />
			<input>
				<port id="0" precision="FP32">
					<dim>-1</dim>
					<dim>96</dim>
					<dim>26</dim>
					<dim>26</dim>
				</port>
				<port id="1" precision="FP32">
					<dim>1</dim>
					<dim>96</dim>
					<dim>1</dim>
					<dim>1</dim>
				</port>
			</input>
			<output>
				<port id="2" precision="FP32" names="1336,x.79">
					<dim>-1</dim>
					<dim>96</dim>
					<dim>26</dim>
					<dim>26</dim>
				</port>
			</output>
		</layer>
		<layer id="210" name="__module.model.neck.top_down_blocks.0.main_conv.activation/aten::mul/Multiply" type="Swish" version="opset4">
			<input>
				<port id="0" precision="FP32">
					<dim>-1</dim>
					<dim>96</dim>
					<dim>26</dim>
					<dim>26</dim>
				</port>
			</input>
			<output>
				<port id="1" precision="FP32" names="1338,input.147">
					<dim>-1</dim>
					<dim>96</dim>
					<dim>26</dim>
					<dim>26</dim>
				</port>
			</output>
		</layer>
		<layer id="211" name="Multiply_19073" type="Const" version="opset1">
			<data element_type="f32" shape="96, 96, 1, 1" offset="9916656" size="36864" />
			<output>
				<port id="0" precision="FP32">
					<dim>96</dim>
					<dim>96</dim>
					<dim>1</dim>
					<dim>1</dim>
				</port>
			</output>
		</layer>
		<layer id="212" name="Multiply_18664" type="Convolution" version="opset1">
			<data strides="1, 1" dilations="1, 1" pads_begin="0, 0" pads_end="0, 0" auto_pad="explicit" />
			<input>
				<port id="0" precision="FP32">
					<dim>-1</dim>
					<dim>96</dim>
					<dim>26</dim>
					<dim>26</dim>
				</port>
				<port id="1" precision="FP32">
					<dim>96</dim>
					<dim>96</dim>
					<dim>1</dim>
					<dim>1</dim>
				</port>
			</input>
			<output>
				<port id="2" precision="FP32">
					<dim>-1</dim>
					<dim>96</dim>
					<dim>26</dim>
					<dim>26</dim>
				</port>
			</output>
		</layer>
		<layer id="213" name="Constant_18669" type="Const" version="opset1">
			<data element_type="f32" shape="1, 96, 1, 1" offset="9953520" size="384" />
			<output>
				<port id="0" precision="FP32">
					<dim>1</dim>
					<dim>96</dim>
					<dim>1</dim>
					<dim>1</dim>
				</port>
			</output>
		</layer>
		<layer id="214" name="__module.model.neck.top_down_blocks.0.blocks.0.conv1.bn/aten::batch_norm/BatchNormInference" type="Add" version="opset1">
			<data auto_broadcast="numpy" />
			<input>
				<port id="0" precision="FP32">
					<dim>-1</dim>
					<dim>96</dim>
					<dim>26</dim>
					<dim>26</dim>
				</port>
				<port id="1" precision="FP32">
					<dim>1</dim>
					<dim>96</dim>
					<dim>1</dim>
					<dim>1</dim>
				</port>
			</input>
			<output>
				<port id="2" precision="FP32" names="1355,x.81">
					<dim>-1</dim>
					<dim>96</dim>
					<dim>26</dim>
					<dim>26</dim>
				</port>
			</output>
		</layer>
		<layer id="215" name="__module.model.neck.top_down_blocks.0.blocks.0.conv1.activation/aten::mul/Multiply" type="Swish" version="opset4">
			<input>
				<port id="0" precision="FP32">
					<dim>-1</dim>
					<dim>96</dim>
					<dim>26</dim>
					<dim>26</dim>
				</port>
			</input>
			<output>
				<port id="1" precision="FP32" names="1357,input.151">
					<dim>-1</dim>
					<dim>96</dim>
					<dim>26</dim>
					<dim>26</dim>
				</port>
			</output>
		</layer>
		<layer id="216" name="Multiply_19077" type="Const" version="opset1">
			<data element_type="f32" shape="96, 96, 3, 3" offset="9953904" size="331776" />
			<output>
				<port id="0" precision="FP32">
					<dim>96</dim>
					<dim>96</dim>
					<dim>3</dim>
					<dim>3</dim>
				</port>
			</output>
		</layer>
		<layer id="217" name="Multiply_18671" type="Convolution" version="opset1">
			<data strides="1, 1" dilations="1, 1" pads_begin="1, 1" pads_end="1, 1" auto_pad="explicit" />
			<input>
				<port id="0" precision="FP32">
					<dim>-1</dim>
					<dim>96</dim>
					<dim>26</dim>
					<dim>26</dim>
				</port>
				<port id="1" precision="FP32">
					<dim>96</dim>
					<dim>96</dim>
					<dim>3</dim>
					<dim>3</dim>
				</port>
			</input>
			<output>
				<port id="2" precision="FP32">
					<dim>-1</dim>
					<dim>96</dim>
					<dim>26</dim>
					<dim>26</dim>
				</port>
			</output>
		</layer>
		<layer id="218" name="Constant_18676" type="Const" version="opset1">
			<data element_type="f32" shape="1, 96, 1, 1" offset="10285680" size="384" />
			<output>
				<port id="0" precision="FP32">
					<dim>1</dim>
					<dim>96</dim>
					<dim>1</dim>
					<dim>1</dim>
				</port>
			</output>
		</layer>
		<layer id="219" name="__module.model.neck.top_down_blocks.0.blocks.0.conv2.bn/aten::batch_norm/BatchNormInference" type="Add" version="opset1">
			<data auto_broadcast="numpy" />
			<input>
				<port id="0" precision="FP32">
					<dim>-1</dim>
					<dim>96</dim>
					<dim>26</dim>
					<dim>26</dim>
				</port>
				<port id="1" precision="FP32">
					<dim>1</dim>
					<dim>96</dim>
					<dim>1</dim>
					<dim>1</dim>
				</port>
			</input>
			<output>
				<port id="2" precision="FP32" names="1371,x.83">
					<dim>-1</dim>
					<dim>96</dim>
					<dim>26</dim>
					<dim>26</dim>
				</port>
			</output>
		</layer>
		<layer id="220" name="__module.model.neck.top_down_blocks.0.blocks.0.conv2.activation/aten::mul/Multiply" type="Swish" version="opset4">
			<input>
				<port id="0" precision="FP32">
					<dim>-1</dim>
					<dim>96</dim>
					<dim>26</dim>
					<dim>26</dim>
				</port>
			</input>
			<output>
				<port id="1" precision="FP32" names="1373,x_main.9">
					<dim>-1</dim>
					<dim>96</dim>
					<dim>26</dim>
					<dim>26</dim>
				</port>
			</output>
		</layer>
		<layer id="221" name="Multiply_19081" type="Const" version="opset1">
			<data element_type="f32" shape="96, 384, 1, 1" offset="10286064" size="147456" />
			<output>
				<port id="0" precision="FP32">
					<dim>96</dim>
					<dim>384</dim>
					<dim>1</dim>
					<dim>1</dim>
				</port>
			</output>
		</layer>
		<layer id="222" name="Multiply_18678" type="Convolution" version="opset1">
			<data strides="1, 1" dilations="1, 1" pads_begin="0, 0" pads_end="0, 0" auto_pad="explicit" />
			<input>
				<port id="0" precision="FP32">
					<dim>-1</dim>
					<dim>384</dim>
					<dim>26</dim>
					<dim>26</dim>
				</port>
				<port id="1" precision="FP32">
					<dim>96</dim>
					<dim>384</dim>
					<dim>1</dim>
					<dim>1</dim>
				</port>
			</input>
			<output>
				<port id="2" precision="FP32">
					<dim>-1</dim>
					<dim>96</dim>
					<dim>26</dim>
					<dim>26</dim>
				</port>
			</output>
		</layer>
		<layer id="223" name="Constant_18683" type="Const" version="opset1">
			<data element_type="f32" shape="1, 96, 1, 1" offset="10433520" size="384" />
			<output>
				<port id="0" precision="FP32">
					<dim>1</dim>
					<dim>96</dim>
					<dim>1</dim>
					<dim>1</dim>
				</port>
			</output>
		</layer>
		<layer id="224" name="__module.model.neck.top_down_blocks.0.short_conv.bn/aten::batch_norm/BatchNormInference" type="Add" version="opset1">
			<data auto_broadcast="numpy" />
			<input>
				<port id="0" precision="FP32">
					<dim>-1</dim>
					<dim>96</dim>
					<dim>26</dim>
					<dim>26</dim>
				</port>
				<port id="1" precision="FP32">
					<dim>1</dim>
					<dim>96</dim>
					<dim>1</dim>
					<dim>1</dim>
				</port>
			</input>
			<output>
				<port id="2" precision="FP32" names="1320,x.77">
					<dim>-1</dim>
					<dim>96</dim>
					<dim>26</dim>
					<dim>26</dim>
				</port>
			</output>
		</layer>
		<layer id="225" name="__module.model.neck.top_down_blocks.0.short_conv.activation/aten::mul/Multiply" type="Swish" version="opset4">
			<input>
				<port id="0" precision="FP32">
					<dim>-1</dim>
					<dim>96</dim>
					<dim>26</dim>
					<dim>26</dim>
				</port>
			</input>
			<output>
				<port id="1" precision="FP32" names="1322,x_short.9">
					<dim>-1</dim>
					<dim>96</dim>
					<dim>26</dim>
					<dim>26</dim>
				</port>
			</output>
		</layer>
		<layer id="226" name="__module.model.neck.top_down_blocks.0/aten::cat/Concat" type="Concat" version="opset1">
			<data axis="1" />
			<input>
				<port id="0" precision="FP32">
					<dim>-1</dim>
					<dim>96</dim>
					<dim>26</dim>
					<dim>26</dim>
				</port>
				<port id="1" precision="FP32">
					<dim>-1</dim>
					<dim>96</dim>
					<dim>26</dim>
					<dim>26</dim>
				</port>
			</input>
			<output>
				<port id="2" precision="FP32" names="1375,input.155">
					<dim>-1</dim>
					<dim>192</dim>
					<dim>26</dim>
					<dim>26</dim>
				</port>
			</output>
		</layer>
		<layer id="227" name="Multiply_19085" type="Const" version="opset1">
			<data element_type="f32" shape="192, 192, 1, 1" offset="10433904" size="147456" />
			<output>
				<port id="0" precision="FP32">
					<dim>192</dim>
					<dim>192</dim>
					<dim>1</dim>
					<dim>1</dim>
				</port>
			</output>
		</layer>
		<layer id="228" name="Multiply_18685" type="Convolution" version="opset1">
			<data strides="1, 1" dilations="1, 1" pads_begin="0, 0" pads_end="0, 0" auto_pad="explicit" />
			<input>
				<port id="0" precision="FP32">
					<dim>-1</dim>
					<dim>192</dim>
					<dim>26</dim>
					<dim>26</dim>
				</port>
				<port id="1" precision="FP32">
					<dim>192</dim>
					<dim>192</dim>
					<dim>1</dim>
					<dim>1</dim>
				</port>
			</input>
			<output>
				<port id="2" precision="FP32">
					<dim>-1</dim>
					<dim>192</dim>
					<dim>26</dim>
					<dim>26</dim>
				</port>
			</output>
		</layer>
		<layer id="229" name="Constant_18690" type="Const" version="opset1">
			<data element_type="f32" shape="1, 192, 1, 1" offset="10581360" size="768" />
			<output>
				<port id="0" precision="FP32">
					<dim>1</dim>
					<dim>192</dim>
					<dim>1</dim>
					<dim>1</dim>
				</port>
			</output>
		</layer>
		<layer id="230" name="__module.model.neck.top_down_blocks.0.final_conv.bn/aten::batch_norm/BatchNormInference" type="Add" version="opset1">
			<data auto_broadcast="numpy" />
			<input>
				<port id="0" precision="FP32">
					<dim>-1</dim>
					<dim>192</dim>
					<dim>26</dim>
					<dim>26</dim>
				</port>
				<port id="1" precision="FP32">
					<dim>1</dim>
					<dim>192</dim>
					<dim>1</dim>
					<dim>1</dim>
				</port>
			</input>
			<output>
				<port id="2" precision="FP32" names="1389,x.85">
					<dim>-1</dim>
					<dim>192</dim>
					<dim>26</dim>
					<dim>26</dim>
				</port>
			</output>
		</layer>
		<layer id="231" name="__module.model.neck.top_down_blocks.0.final_conv.activation/aten::mul/Multiply" type="Swish" version="opset4">
			<input>
				<port id="0" precision="FP32">
					<dim>-1</dim>
					<dim>192</dim>
					<dim>26</dim>
					<dim>26</dim>
				</port>
			</input>
			<output>
				<port id="1" precision="FP32" names="1391,input.159">
					<dim>-1</dim>
					<dim>192</dim>
					<dim>26</dim>
					<dim>26</dim>
				</port>
			</output>
		</layer>
		<layer id="232" name="Multiply_19089" type="Const" version="opset1">
			<data element_type="f32" shape="96, 192, 1, 1" offset="10582128" size="73728" />
			<output>
				<port id="0" precision="FP32">
					<dim>96</dim>
					<dim>192</dim>
					<dim>1</dim>
					<dim>1</dim>
				</port>
			</output>
		</layer>
		<layer id="233" name="Multiply_18692" type="Convolution" version="opset1">
			<data strides="1, 1" dilations="1, 1" pads_begin="0, 0" pads_end="0, 0" auto_pad="explicit" />
			<input>
				<port id="0" precision="FP32">
					<dim>-1</dim>
					<dim>192</dim>
					<dim>26</dim>
					<dim>26</dim>
				</port>
				<port id="1" precision="FP32">
					<dim>96</dim>
					<dim>192</dim>
					<dim>1</dim>
					<dim>1</dim>
				</port>
			</input>
			<output>
				<port id="2" precision="FP32">
					<dim>-1</dim>
					<dim>96</dim>
					<dim>26</dim>
					<dim>26</dim>
				</port>
			</output>
		</layer>
		<layer id="234" name="Constant_18697" type="Const" version="opset1">
			<data element_type="f32" shape="1, 96, 1, 1" offset="10655856" size="384" />
			<output>
				<port id="0" precision="FP32">
					<dim>1</dim>
					<dim>96</dim>
					<dim>1</dim>
					<dim>1</dim>
				</port>
			</output>
		</layer>
		<layer id="235" name="__module.model.neck.reduce_layers.1.bn/aten::batch_norm/BatchNormInference" type="Add" version="opset1">
			<data auto_broadcast="numpy" />
			<input>
				<port id="0" precision="FP32">
					<dim>-1</dim>
					<dim>96</dim>
					<dim>26</dim>
					<dim>26</dim>
				</port>
				<port id="1" precision="FP32">
					<dim>1</dim>
					<dim>96</dim>
					<dim>1</dim>
					<dim>1</dim>
				</port>
			</input>
			<output>
				<port id="2" precision="FP32" names="1405,x.87">
					<dim>-1</dim>
					<dim>96</dim>
					<dim>26</dim>
					<dim>26</dim>
				</port>
			</output>
		</layer>
		<layer id="236" name="__module.model.neck.reduce_layers.1.activation/aten::mul/Multiply" type="Swish" version="opset4">
			<input>
				<port id="0" precision="FP32">
					<dim>-1</dim>
					<dim>96</dim>
					<dim>26</dim>
					<dim>26</dim>
				</port>
			</input>
			<output>
				<port id="1" precision="FP32" names="1407,input.163">
					<dim>-1</dim>
					<dim>96</dim>
					<dim>26</dim>
					<dim>26</dim>
				</port>
			</output>
		</layer>
		<layer id="237" name="__module.model.neck.upsample/aten::upsample_nearest2d/Multiply_1" type="Const" version="opset1">
			<data element_type="f32" shape="2" offset="9768800" size="8" />
			<output>
				<port id="0" precision="FP32">
					<dim>2</dim>
				</port>
			</output>
		</layer>
		<layer id="238" name="Constant_3149" type="Const" version="opset1">
			<data element_type="i32" shape="2" offset="9768808" size="8" />
			<output>
				<port id="0" precision="I32">
					<dim>2</dim>
				</port>
			</output>
		</layer>
		<layer id="239" name="__module.model.neck.upsample/aten::upsample_nearest2d/Interpolate_1" type="Interpolate" version="opset11">
			<data mode="nearest" shape_calculation_mode="scales" coordinate_transformation_mode="asymmetric" nearest_mode="floor" antialias="false" pads_begin="0, 0, 0, 0" pads_end="0, 0, 0, 0" cube_coeff="-0.75" />
			<input>
				<port id="0" precision="FP32">
					<dim>-1</dim>
					<dim>96</dim>
					<dim>26</dim>
					<dim>26</dim>
				</port>
				<port id="1" precision="FP32">
					<dim>2</dim>
				</port>
				<port id="2" precision="I32">
					<dim>2</dim>
				</port>
			</input>
			<output>
				<port id="3" precision="FP32" names="1409,upsample_feat">
					<dim>-1</dim>
					<dim>96</dim>
					<dim>52</dim>
					<dim>52</dim>
				</port>
			</output>
		</layer>
		<layer id="240" name="__module.model.neck/aten::cat/Concat_1" type="Concat" version="opset1">
			<data axis="1" />
			<input>
				<port id="0" precision="FP32">
					<dim>-1</dim>
					<dim>96</dim>
					<dim>52</dim>
					<dim>52</dim>
				</port>
				<port id="1" precision="FP32">
					<dim>-1</dim>
					<dim>96</dim>
					<dim>52</dim>
					<dim>52</dim>
				</port>
			</input>
			<output>
				<port id="2" precision="FP32" names="1411,input.165">
					<dim>-1</dim>
					<dim>192</dim>
					<dim>52</dim>
					<dim>52</dim>
				</port>
			</output>
		</layer>
		<layer id="241" name="Multiply_19093" type="Const" version="opset1">
			<data element_type="f32" shape="48, 192, 1, 1" offset="10656240" size="36864" />
			<output>
				<port id="0" precision="FP32">
					<dim>48</dim>
					<dim>192</dim>
					<dim>1</dim>
					<dim>1</dim>
				</port>
			</output>
		</layer>
		<layer id="242" name="Multiply_18699" type="Convolution" version="opset1">
			<data strides="1, 1" dilations="1, 1" pads_begin="0, 0" pads_end="0, 0" auto_pad="explicit" />
			<input>
				<port id="0" precision="FP32">
					<dim>-1</dim>
					<dim>192</dim>
					<dim>52</dim>
					<dim>52</dim>
				</port>
				<port id="1" precision="FP32">
					<dim>48</dim>
					<dim>192</dim>
					<dim>1</dim>
					<dim>1</dim>
				</port>
			</input>
			<output>
				<port id="2" precision="FP32">
					<dim>-1</dim>
					<dim>48</dim>
					<dim>52</dim>
					<dim>52</dim>
				</port>
			</output>
		</layer>
		<layer id="243" name="Constant_18704" type="Const" version="opset1">
			<data element_type="f32" shape="1, 48, 1, 1" offset="10693104" size="192" />
			<output>
				<port id="0" precision="FP32">
					<dim>1</dim>
					<dim>48</dim>
					<dim>1</dim>
					<dim>1</dim>
				</port>
			</output>
		</layer>
		<layer id="244" name="__module.model.neck.top_down_blocks.1.main_conv.bn/aten::batch_norm/BatchNormInference" type="Add" version="opset1">
			<data auto_broadcast="numpy" />
			<input>
				<port id="0" precision="FP32">
					<dim>-1</dim>
					<dim>48</dim>
					<dim>52</dim>
					<dim>52</dim>
				</port>
				<port id="1" precision="FP32">
					<dim>1</dim>
					<dim>48</dim>
					<dim>1</dim>
					<dim>1</dim>
				</port>
			</input>
			<output>
				<port id="2" precision="FP32" names="1445,x.91">
					<dim>-1</dim>
					<dim>48</dim>
					<dim>52</dim>
					<dim>52</dim>
				</port>
			</output>
		</layer>
		<layer id="245" name="__module.model.neck.top_down_blocks.1.main_conv.activation/aten::mul/Multiply" type="Swish" version="opset4">
			<input>
				<port id="0" precision="FP32">
					<dim>-1</dim>
					<dim>48</dim>
					<dim>52</dim>
					<dim>52</dim>
				</port>
			</input>
			<output>
				<port id="1" precision="FP32" names="1447,input.171">
					<dim>-1</dim>
					<dim>48</dim>
					<dim>52</dim>
					<dim>52</dim>
				</port>
			</output>
		</layer>
		<layer id="246" name="Multiply_19097" type="Const" version="opset1">
			<data element_type="f32" shape="48, 48, 1, 1" offset="10693296" size="9216" />
			<output>
				<port id="0" precision="FP32">
					<dim>48</dim>
					<dim>48</dim>
					<dim>1</dim>
					<dim>1</dim>
				</port>
			</output>
		</layer>
		<layer id="247" name="Multiply_18706" type="Convolution" version="opset1">
			<data strides="1, 1" dilations="1, 1" pads_begin="0, 0" pads_end="0, 0" auto_pad="explicit" />
			<input>
				<port id="0" precision="FP32">
					<dim>-1</dim>
					<dim>48</dim>
					<dim>52</dim>
					<dim>52</dim>
				</port>
				<port id="1" precision="FP32">
					<dim>48</dim>
					<dim>48</dim>
					<dim>1</dim>
					<dim>1</dim>
				</port>
			</input>
			<output>
				<port id="2" precision="FP32">
					<dim>-1</dim>
					<dim>48</dim>
					<dim>52</dim>
					<dim>52</dim>
				</port>
			</output>
		</layer>
		<layer id="248" name="Constant_18711" type="Const" version="opset1">
			<data element_type="f32" shape="1, 48, 1, 1" offset="10702512" size="192" />
			<output>
				<port id="0" precision="FP32">
					<dim>1</dim>
					<dim>48</dim>
					<dim>1</dim>
					<dim>1</dim>
				</port>
			</output>
		</layer>
		<layer id="249" name="__module.model.neck.top_down_blocks.1.blocks.0.conv1.bn/aten::batch_norm/BatchNormInference" type="Add" version="opset1">
			<data auto_broadcast="numpy" />
			<input>
				<port id="0" precision="FP32">
					<dim>-1</dim>
					<dim>48</dim>
					<dim>52</dim>
					<dim>52</dim>
				</port>
				<port id="1" precision="FP32">
					<dim>1</dim>
					<dim>48</dim>
					<dim>1</dim>
					<dim>1</dim>
				</port>
			</input>
			<output>
				<port id="2" precision="FP32" names="1464,x.93">
					<dim>-1</dim>
					<dim>48</dim>
					<dim>52</dim>
					<dim>52</dim>
				</port>
			</output>
		</layer>
		<layer id="250" name="__module.model.neck.top_down_blocks.1.blocks.0.conv1.activation/aten::mul/Multiply" type="Swish" version="opset4">
			<input>
				<port id="0" precision="FP32">
					<dim>-1</dim>
					<dim>48</dim>
					<dim>52</dim>
					<dim>52</dim>
				</port>
			</input>
			<output>
				<port id="1" precision="FP32" names="1466,input.175">
					<dim>-1</dim>
					<dim>48</dim>
					<dim>52</dim>
					<dim>52</dim>
				</port>
			</output>
		</layer>
		<layer id="251" name="Multiply_19101" type="Const" version="opset1">
			<data element_type="f32" shape="48, 48, 3, 3" offset="10702704" size="82944" />
			<output>
				<port id="0" precision="FP32">
					<dim>48</dim>
					<dim>48</dim>
					<dim>3</dim>
					<dim>3</dim>
				</port>
			</output>
		</layer>
		<layer id="252" name="Multiply_18713" type="Convolution" version="opset1">
			<data strides="1, 1" dilations="1, 1" pads_begin="1, 1" pads_end="1, 1" auto_pad="explicit" />
			<input>
				<port id="0" precision="FP32">
					<dim>-1</dim>
					<dim>48</dim>
					<dim>52</dim>
					<dim>52</dim>
				</port>
				<port id="1" precision="FP32">
					<dim>48</dim>
					<dim>48</dim>
					<dim>3</dim>
					<dim>3</dim>
				</port>
			</input>
			<output>
				<port id="2" precision="FP32">
					<dim>-1</dim>
					<dim>48</dim>
					<dim>52</dim>
					<dim>52</dim>
				</port>
			</output>
		</layer>
		<layer id="253" name="Constant_18718" type="Const" version="opset1">
			<data element_type="f32" shape="1, 48, 1, 1" offset="10785648" size="192" />
			<output>
				<port id="0" precision="FP32">
					<dim>1</dim>
					<dim>48</dim>
					<dim>1</dim>
					<dim>1</dim>
				</port>
			</output>
		</layer>
		<layer id="254" name="__module.model.neck.top_down_blocks.1.blocks.0.conv2.bn/aten::batch_norm/BatchNormInference" type="Add" version="opset1">
			<data auto_broadcast="numpy" />
			<input>
				<port id="0" precision="FP32">
					<dim>-1</dim>
					<dim>48</dim>
					<dim>52</dim>
					<dim>52</dim>
				</port>
				<port id="1" precision="FP32">
					<dim>1</dim>
					<dim>48</dim>
					<dim>1</dim>
					<dim>1</dim>
				</port>
			</input>
			<output>
				<port id="2" precision="FP32" names="1480,x.95">
					<dim>-1</dim>
					<dim>48</dim>
					<dim>52</dim>
					<dim>52</dim>
				</port>
			</output>
		</layer>
		<layer id="255" name="__module.model.neck.top_down_blocks.1.blocks.0.conv2.activation/aten::mul/Multiply" type="Swish" version="opset4">
			<input>
				<port id="0" precision="FP32">
					<dim>-1</dim>
					<dim>48</dim>
					<dim>52</dim>
					<dim>52</dim>
				</port>
			</input>
			<output>
				<port id="1" precision="FP32" names="1482,x_main.11">
					<dim>-1</dim>
					<dim>48</dim>
					<dim>52</dim>
					<dim>52</dim>
				</port>
			</output>
		</layer>
		<layer id="256" name="Multiply_19105" type="Const" version="opset1">
			<data element_type="f32" shape="48, 192, 1, 1" offset="10785840" size="36864" />
			<output>
				<port id="0" precision="FP32">
					<dim>48</dim>
					<dim>192</dim>
					<dim>1</dim>
					<dim>1</dim>
				</port>
			</output>
		</layer>
		<layer id="257" name="Multiply_18720" type="Convolution" version="opset1">
			<data strides="1, 1" dilations="1, 1" pads_begin="0, 0" pads_end="0, 0" auto_pad="explicit" />
			<input>
				<port id="0" precision="FP32">
					<dim>-1</dim>
					<dim>192</dim>
					<dim>52</dim>
					<dim>52</dim>
				</port>
				<port id="1" precision="FP32">
					<dim>48</dim>
					<dim>192</dim>
					<dim>1</dim>
					<dim>1</dim>
				</port>
			</input>
			<output>
				<port id="2" precision="FP32">
					<dim>-1</dim>
					<dim>48</dim>
					<dim>52</dim>
					<dim>52</dim>
				</port>
			</output>
		</layer>
		<layer id="258" name="Constant_18725" type="Const" version="opset1">
			<data element_type="f32" shape="1, 48, 1, 1" offset="10822704" size="192" />
			<output>
				<port id="0" precision="FP32">
					<dim>1</dim>
					<dim>48</dim>
					<dim>1</dim>
					<dim>1</dim>
				</port>
			</output>
		</layer>
		<layer id="259" name="__module.model.neck.top_down_blocks.1.short_conv.bn/aten::batch_norm/BatchNormInference" type="Add" version="opset1">
			<data auto_broadcast="numpy" />
			<input>
				<port id="0" precision="FP32">
					<dim>-1</dim>
					<dim>48</dim>
					<dim>52</dim>
					<dim>52</dim>
				</port>
				<port id="1" precision="FP32">
					<dim>1</dim>
					<dim>48</dim>
					<dim>1</dim>
					<dim>1</dim>
				</port>
			</input>
			<output>
				<port id="2" precision="FP32" names="1429,x.89">
					<dim>-1</dim>
					<dim>48</dim>
					<dim>52</dim>
					<dim>52</dim>
				</port>
			</output>
		</layer>
		<layer id="260" name="__module.model.neck.top_down_blocks.1.short_conv.activation/aten::mul/Multiply" type="Swish" version="opset4">
			<input>
				<port id="0" precision="FP32">
					<dim>-1</dim>
					<dim>48</dim>
					<dim>52</dim>
					<dim>52</dim>
				</port>
			</input>
			<output>
				<port id="1" precision="FP32" names="1431,x_short.11">
					<dim>-1</dim>
					<dim>48</dim>
					<dim>52</dim>
					<dim>52</dim>
				</port>
			</output>
		</layer>
		<layer id="261" name="__module.model.neck.top_down_blocks.1/aten::cat/Concat" type="Concat" version="opset1">
			<data axis="1" />
			<input>
				<port id="0" precision="FP32">
					<dim>-1</dim>
					<dim>48</dim>
					<dim>52</dim>
					<dim>52</dim>
				</port>
				<port id="1" precision="FP32">
					<dim>-1</dim>
					<dim>48</dim>
					<dim>52</dim>
					<dim>52</dim>
				</port>
			</input>
			<output>
				<port id="2" precision="FP32" names="1484,input.179">
					<dim>-1</dim>
					<dim>96</dim>
					<dim>52</dim>
					<dim>52</dim>
				</port>
			</output>
		</layer>
		<layer id="262" name="Multiply_19109" type="Const" version="opset1">
			<data element_type="f32" shape="96, 96, 1, 1" offset="10822896" size="36864" />
			<output>
				<port id="0" precision="FP32">
					<dim>96</dim>
					<dim>96</dim>
					<dim>1</dim>
					<dim>1</dim>
				</port>
			</output>
		</layer>
		<layer id="263" name="Multiply_18727" type="Convolution" version="opset1">
			<data strides="1, 1" dilations="1, 1" pads_begin="0, 0" pads_end="0, 0" auto_pad="explicit" />
			<input>
				<port id="0" precision="FP32">
					<dim>-1</dim>
					<dim>96</dim>
					<dim>52</dim>
					<dim>52</dim>
				</port>
				<port id="1" precision="FP32">
					<dim>96</dim>
					<dim>96</dim>
					<dim>1</dim>
					<dim>1</dim>
				</port>
			</input>
			<output>
				<port id="2" precision="FP32">
					<dim>-1</dim>
					<dim>96</dim>
					<dim>52</dim>
					<dim>52</dim>
				</port>
			</output>
		</layer>
		<layer id="264" name="Constant_18732" type="Const" version="opset1">
			<data element_type="f32" shape="1, 96, 1, 1" offset="10859760" size="384" />
			<output>
				<port id="0" precision="FP32">
					<dim>1</dim>
					<dim>96</dim>
					<dim>1</dim>
					<dim>1</dim>
				</port>
			</output>
		</layer>
		<layer id="265" name="__module.model.neck.top_down_blocks.1.final_conv.bn/aten::batch_norm/BatchNormInference" type="Add" version="opset1">
			<data auto_broadcast="numpy" />
			<input>
				<port id="0" precision="FP32">
					<dim>-1</dim>
					<dim>96</dim>
					<dim>52</dim>
					<dim>52</dim>
				</port>
				<port id="1" precision="FP32">
					<dim>1</dim>
					<dim>96</dim>
					<dim>1</dim>
					<dim>1</dim>
				</port>
			</input>
			<output>
				<port id="2" precision="FP32" names="1498,x.97">
					<dim>-1</dim>
					<dim>96</dim>
					<dim>52</dim>
					<dim>52</dim>
				</port>
			</output>
		</layer>
		<layer id="266" name="__module.model.neck.top_down_blocks.1.final_conv.activation/aten::mul/Multiply" type="Swish" version="opset4">
			<input>
				<port id="0" precision="FP32">
					<dim>-1</dim>
					<dim>96</dim>
					<dim>52</dim>
					<dim>52</dim>
				</port>
			</input>
			<output>
				<port id="1" precision="FP32" names="1500,input.183">
					<dim>-1</dim>
					<dim>96</dim>
					<dim>52</dim>
					<dim>52</dim>
				</port>
			</output>
		</layer>
		<layer id="267" name="Multiply_19113" type="Const" version="opset1">
			<data element_type="f32" shape="96, 96, 1, 1" offset="10860144" size="36864" />
			<output>
				<port id="0" precision="FP32">
					<dim>96</dim>
					<dim>96</dim>
					<dim>1</dim>
					<dim>1</dim>
				</port>
			</output>
		</layer>
		<layer id="268" name="Multiply_18734" type="Convolution" version="opset1">
			<data strides="1, 1" dilations="1, 1" pads_begin="0, 0" pads_end="0, 0" auto_pad="explicit" />
			<input>
				<port id="0" precision="FP32">
					<dim>-1</dim>
					<dim>96</dim>
					<dim>52</dim>
					<dim>52</dim>
				</port>
				<port id="1" precision="FP32">
					<dim>96</dim>
					<dim>96</dim>
					<dim>1</dim>
					<dim>1</dim>
				</port>
			</input>
			<output>
				<port id="2" precision="FP32">
					<dim>-1</dim>
					<dim>96</dim>
					<dim>52</dim>
					<dim>52</dim>
				</port>
			</output>
		</layer>
		<layer id="269" name="Constant_18739" type="Const" version="opset1">
			<data element_type="f32" shape="1, 96, 1, 1" offset="10897008" size="384" />
			<output>
				<port id="0" precision="FP32">
					<dim>1</dim>
					<dim>96</dim>
					<dim>1</dim>
					<dim>1</dim>
				</port>
			</output>
		</layer>
		<layer id="270" name="__module.model.neck.out_convs.0.bn/aten::batch_norm/BatchNormInference" type="Add" version="opset1">
			<data auto_broadcast="numpy" />
			<input>
				<port id="0" precision="FP32">
					<dim>-1</dim>
					<dim>96</dim>
					<dim>52</dim>
					<dim>52</dim>
				</port>
				<port id="1" precision="FP32">
					<dim>1</dim>
					<dim>96</dim>
					<dim>1</dim>
					<dim>1</dim>
				</port>
			</input>
			<output>
				<port id="2" precision="FP32" names="1728,x.123">
					<dim>-1</dim>
					<dim>96</dim>
					<dim>52</dim>
					<dim>52</dim>
				</port>
			</output>
		</layer>
		<layer id="271" name="__module.model.neck.out_convs.0.activation/aten::mul/Multiply" type="Swish" version="opset4">
			<input>
				<port id="0" precision="FP32">
					<dim>-1</dim>
					<dim>96</dim>
					<dim>52</dim>
					<dim>52</dim>
				</port>
			</input>
			<output>
				<port id="1" precision="FP32" names="13,1730,input.235">
					<dim>-1</dim>
					<dim>96</dim>
					<dim>52</dim>
					<dim>52</dim>
				</port>
			</output>
		</layer>
		<layer id="272" name="Multiply_19117" type="Const" version="opset1">
			<data element_type="f32" shape="96, 96, 3, 3" offset="10897392" size="331776" />
			<output>
				<port id="0" precision="FP32">
					<dim>96</dim>
					<dim>96</dim>
					<dim>3</dim>
					<dim>3</dim>
				</port>
			</output>
		</layer>
		<layer id="273" name="Multiply_18741" type="Convolution" version="opset1">
			<data strides="1, 1" dilations="1, 1" pads_begin="1, 1" pads_end="1, 1" auto_pad="explicit" />
			<input>
				<port id="0" precision="FP32">
					<dim>-1</dim>
					<dim>96</dim>
					<dim>52</dim>
					<dim>52</dim>
				</port>
				<port id="1" precision="FP32">
					<dim>96</dim>
					<dim>96</dim>
					<dim>3</dim>
					<dim>3</dim>
				</port>
			</input>
			<output>
				<port id="2" precision="FP32">
					<dim>-1</dim>
					<dim>96</dim>
					<dim>52</dim>
					<dim>52</dim>
				</port>
			</output>
		</layer>
		<layer id="274" name="Constant_18746" type="Const" version="opset1">
			<data element_type="f32" shape="1, 96, 1, 1" offset="11229168" size="384" />
			<output>
				<port id="0" precision="FP32">
					<dim>1</dim>
					<dim>96</dim>
					<dim>1</dim>
					<dim>1</dim>
				</port>
			</output>
		</layer>
		<layer id="275" name="__module.model.bbox_head.multi_level_cls_convs.0.0.bn/aten::batch_norm/BatchNormInference" type="Add" version="opset1">
			<data auto_broadcast="numpy" />
			<input>
				<port id="0" precision="FP32">
					<dim>-1</dim>
					<dim>96</dim>
					<dim>52</dim>
					<dim>52</dim>
				</port>
				<port id="1" precision="FP32">
					<dim>1</dim>
					<dim>96</dim>
					<dim>1</dim>
					<dim>1</dim>
				</port>
			</input>
			<output>
				<port id="2" precision="FP32" names="1816,x.129">
					<dim>-1</dim>
					<dim>96</dim>
					<dim>52</dim>
					<dim>52</dim>
				</port>
			</output>
		</layer>
		<layer id="276" name="__module.model.bbox_head.multi_level_cls_convs.0.0.activation/aten::mul/Multiply" type="Swish" version="opset4">
			<input>
				<port id="0" precision="FP32">
					<dim>-1</dim>
					<dim>96</dim>
					<dim>52</dim>
					<dim>52</dim>
				</port>
			</input>
			<output>
				<port id="1" precision="FP32" names="1818,input.239">
					<dim>-1</dim>
					<dim>96</dim>
					<dim>52</dim>
					<dim>52</dim>
				</port>
			</output>
		</layer>
		<layer id="277" name="Multiply_19121" type="Const" version="opset1">
			<data element_type="f32" shape="96, 96, 3, 3" offset="11229552" size="331776" />
			<output>
				<port id="0" precision="FP32">
					<dim>96</dim>
					<dim>96</dim>
					<dim>3</dim>
					<dim>3</dim>
				</port>
			</output>
		</layer>
		<layer id="278" name="Multiply_18748" type="Convolution" version="opset1">
			<data strides="1, 1" dilations="1, 1" pads_begin="1, 1" pads_end="1, 1" auto_pad="explicit" />
			<input>
				<port id="0" precision="FP32">
					<dim>-1</dim>
					<dim>96</dim>
					<dim>52</dim>
					<dim>52</dim>
				</port>
				<port id="1" precision="FP32">
					<dim>96</dim>
					<dim>96</dim>
					<dim>3</dim>
					<dim>3</dim>
				</port>
			</input>
			<output>
				<port id="2" precision="FP32">
					<dim>-1</dim>
					<dim>96</dim>
					<dim>52</dim>
					<dim>52</dim>
				</port>
			</output>
		</layer>
		<layer id="279" name="Constant_18753" type="Const" version="opset1">
			<data element_type="f32" shape="1, 96, 1, 1" offset="11561328" size="384" />
			<output>
				<port id="0" precision="FP32">
					<dim>1</dim>
					<dim>96</dim>
					<dim>1</dim>
					<dim>1</dim>
				</port>
			</output>
		</layer>
		<layer id="280" name="__module.model.bbox_head.multi_level_cls_convs.0.1.bn/aten::batch_norm/BatchNormInference" type="Add" version="opset1">
			<data auto_broadcast="numpy" />
			<input>
				<port id="0" precision="FP32">
					<dim>-1</dim>
					<dim>96</dim>
					<dim>52</dim>
					<dim>52</dim>
				</port>
				<port id="1" precision="FP32">
					<dim>1</dim>
					<dim>96</dim>
					<dim>1</dim>
					<dim>1</dim>
				</port>
			</input>
			<output>
				<port id="2" precision="FP32" names="1832,x.131">
					<dim>-1</dim>
					<dim>96</dim>
					<dim>52</dim>
					<dim>52</dim>
				</port>
			</output>
		</layer>
		<layer id="281" name="__module.model.bbox_head.multi_level_cls_convs.0.1.activation/aten::mul/Multiply" type="Swish" version="opset4">
			<input>
				<port id="0" precision="FP32">
					<dim>-1</dim>
					<dim>96</dim>
					<dim>52</dim>
					<dim>52</dim>
				</port>
			</input>
			<output>
				<port id="1" precision="FP32" names="1834,input.249">
					<dim>-1</dim>
					<dim>96</dim>
					<dim>52</dim>
					<dim>52</dim>
				</port>
			</output>
		</layer>
		<layer id="282" name="self.model.bbox_head.multi_level_conv_cls.0.weight" type="Const" version="opset1">
			<data element_type="f32" shape="3, 96, 1, 1" offset="11561712" size="1152" />
			<output>
				<port id="0" precision="FP32" names="self.model.bbox_head.multi_level_conv_cls.0.weight">
					<dim>3</dim>
					<dim>96</dim>
					<dim>1</dim>
					<dim>1</dim>
				</port>
			</output>
		</layer>
		<layer id="283" name="__module.model.bbox_head.multi_level_conv_cls.0/aten::_convolution/Convolution" type="Convolution" version="opset1">
			<data strides="1, 1" dilations="1, 1" pads_begin="0, 0" pads_end="0, 0" auto_pad="explicit" />
			<input>
				<port id="0" precision="FP32">
					<dim>-1</dim>
					<dim>96</dim>
					<dim>52</dim>
					<dim>52</dim>
				</port>
				<port id="1" precision="FP32">
					<dim>3</dim>
					<dim>96</dim>
					<dim>1</dim>
					<dim>1</dim>
				</port>
			</input>
			<output>
				<port id="2" precision="FP32">
					<dim>-1</dim>
					<dim>3</dim>
					<dim>52</dim>
					<dim>52</dim>
				</port>
			</output>
		</layer>
		<layer id="284" name="__module.model.bbox_head.multi_level_conv_cls.0/aten::_convolution/Reshape" type="Const" version="opset1">
			<data element_type="f32" shape="1, 3, 1, 1" offset="11562864" size="12" />
			<output>
				<port id="0" precision="FP32">
					<dim>1</dim>
					<dim>3</dim>
					<dim>1</dim>
					<dim>1</dim>
				</port>
			</output>
		</layer>
		<layer id="285" name="__module.model.bbox_head.multi_level_conv_cls.0/aten::_convolution/Add" type="Add" version="opset1">
			<data auto_broadcast="numpy" />
			<input>
				<port id="0" precision="FP32">
					<dim>-1</dim>
					<dim>3</dim>
					<dim>52</dim>
					<dim>52</dim>
				</port>
				<port id="1" precision="FP32">
					<dim>1</dim>
					<dim>3</dim>
					<dim>1</dim>
					<dim>1</dim>
				</port>
			</input>
			<output>
				<port id="2" precision="FP32" names="18,1875,cls_score.1">
					<dim>-1</dim>
					<dim>3</dim>
					<dim>52</dim>
					<dim>52</dim>
				</port>
			</output>
		</layer>
		<layer id="286" name="Constant_6108" type="Const" version="opset1">
			<data element_type="i64" shape="4" offset="11562876" size="32" />
			<output>
				<port id="0" precision="I64" names="322">
					<dim>4</dim>
				</port>
			</output>
		</layer>
		<layer id="287" name="aten::permute/Transpose" type="Transpose" version="opset1">
			<input>
				<port id="0" precision="FP32">
					<dim>-1</dim>
					<dim>3</dim>
					<dim>52</dim>
					<dim>52</dim>
				</port>
				<port id="1" precision="I64">
					<dim>4</dim>
				</port>
			</input>
			<output>
				<port id="2" precision="FP32" names="323">
					<dim>-1</dim>
					<dim>52</dim>
					<dim>52</dim>
					<dim>3</dim>
				</port>
			</output>
		</layer>
		<layer id="288" name="Constant_19721" type="Const" version="opset1">
			<data element_type="i64" shape="3" offset="11562908" size="24" />
			<output>
				<port id="0" precision="I64">
					<dim>3</dim>
				</port>
			</output>
		</layer>
		<layer id="289" name="aten::reshape/Reshape" type="Reshape" version="opset1">
			<data special_zero="true" />
			<input>
				<port id="0" precision="FP32">
					<dim>-1</dim>
					<dim>52</dim>
					<dim>52</dim>
					<dim>3</dim>
				</port>
				<port id="1" precision="I64">
					<dim>3</dim>
				</port>
			</input>
			<output>
				<port id="2" precision="FP32" names="327">
					<dim>-1</dim>
					<dim>2704</dim>
					<dim>3</dim>
				</port>
			</output>
		</layer>
		<layer id="290" name="Multiply_19133" type="Const" version="opset1">
			<data element_type="f32" shape="96, 96, 3, 3" offset="11562932" size="331776" />
			<output>
				<port id="0" precision="FP32">
					<dim>96</dim>
					<dim>96</dim>
					<dim>3</dim>
					<dim>3</dim>
				</port>
			</output>
		</layer>
		<layer id="291" name="Multiply_18769" type="Convolution" version="opset1">
			<data strides="2, 2" dilations="1, 1" pads_begin="1, 1" pads_end="1, 1" auto_pad="explicit" />
			<input>
				<port id="0" precision="FP32">
					<dim>-1</dim>
					<dim>96</dim>
					<dim>52</dim>
					<dim>52</dim>
				</port>
				<port id="1" precision="FP32">
					<dim>96</dim>
					<dim>96</dim>
					<dim>3</dim>
					<dim>3</dim>
				</port>
			</input>
			<output>
				<port id="2" precision="FP32">
					<dim>-1</dim>
					<dim>96</dim>
					<dim>26</dim>
					<dim>26</dim>
				</port>
			</output>
		</layer>
		<layer id="292" name="Constant_18774" type="Const" version="opset1">
			<data element_type="f32" shape="1, 96, 1, 1" offset="11894708" size="384" />
			<output>
				<port id="0" precision="FP32">
					<dim>1</dim>
					<dim>96</dim>
					<dim>1</dim>
					<dim>1</dim>
				</port>
			</output>
		</layer>
		<layer id="293" name="__module.model.neck.downsamples.0.bn/aten::batch_norm/BatchNormInference" type="Add" version="opset1">
			<data auto_broadcast="numpy" />
			<input>
				<port id="0" precision="FP32">
					<dim>-1</dim>
					<dim>96</dim>
					<dim>26</dim>
					<dim>26</dim>
				</port>
				<port id="1" precision="FP32">
					<dim>1</dim>
					<dim>96</dim>
					<dim>1</dim>
					<dim>1</dim>
				</port>
			</input>
			<output>
				<port id="2" precision="FP32" names="1514,x.99">
					<dim>-1</dim>
					<dim>96</dim>
					<dim>26</dim>
					<dim>26</dim>
				</port>
			</output>
		</layer>
		<layer id="294" name="__module.model.neck.downsamples.0.activation/aten::mul/Multiply" type="Swish" version="opset4">
			<input>
				<port id="0" precision="FP32">
					<dim>-1</dim>
					<dim>96</dim>
					<dim>26</dim>
					<dim>26</dim>
				</port>
			</input>
			<output>
				<port id="1" precision="FP32" names="1516,downsample_feat.1">
					<dim>-1</dim>
					<dim>96</dim>
					<dim>26</dim>
					<dim>26</dim>
				</port>
			</output>
		</layer>
		<layer id="295" name="__module.model.neck/aten::cat/Concat_2" type="Concat" version="opset1">
			<data axis="1" />
			<input>
				<port id="0" precision="FP32">
					<dim>-1</dim>
					<dim>96</dim>
					<dim>26</dim>
					<dim>26</dim>
				</port>
				<port id="1" precision="FP32">
					<dim>-1</dim>
					<dim>96</dim>
					<dim>26</dim>
					<dim>26</dim>
				</port>
			</input>
			<output>
				<port id="2" precision="FP32" names="1518,input.187">
					<dim>-1</dim>
					<dim>192</dim>
					<dim>26</dim>
					<dim>26</dim>
				</port>
			</output>
		</layer>
		<layer id="296" name="Multiply_19137" type="Const" version="opset1">
			<data element_type="f32" shape="96, 192, 1, 1" offset="11895092" size="73728" />
			<output>
				<port id="0" precision="FP32">
					<dim>96</dim>
					<dim>192</dim>
					<dim>1</dim>
					<dim>1</dim>
				</port>
			</output>
		</layer>
		<layer id="297" name="Multiply_18776" type="Convolution" version="opset1">
			<data strides="1, 1" dilations="1, 1" pads_begin="0, 0" pads_end="0, 0" auto_pad="explicit" />
			<input>
				<port id="0" precision="FP32">
					<dim>-1</dim>
					<dim>192</dim>
					<dim>26</dim>
					<dim>26</dim>
				</port>
				<port id="1" precision="FP32">
					<dim>96</dim>
					<dim>192</dim>
					<dim>1</dim>
					<dim>1</dim>
				</port>
			</input>
			<output>
				<port id="2" precision="FP32">
					<dim>-1</dim>
					<dim>96</dim>
					<dim>26</dim>
					<dim>26</dim>
				</port>
			</output>
		</layer>
		<layer id="298" name="Constant_18781" type="Const" version="opset1">
			<data element_type="f32" shape="1, 96, 1, 1" offset="11968820" size="384" />
			<output>
				<port id="0" precision="FP32">
					<dim>1</dim>
					<dim>96</dim>
					<dim>1</dim>
					<dim>1</dim>
				</port>
			</output>
		</layer>
		<layer id="299" name="__module.model.neck.bottom_up_blocks.0.main_conv.bn/aten::batch_norm/BatchNormInference" type="Add" version="opset1">
			<data auto_broadcast="numpy" />
			<input>
				<port id="0" precision="FP32">
					<dim>-1</dim>
					<dim>96</dim>
					<dim>26</dim>
					<dim>26</dim>
				</port>
				<port id="1" precision="FP32">
					<dim>1</dim>
					<dim>96</dim>
					<dim>1</dim>
					<dim>1</dim>
				</port>
			</input>
			<output>
				<port id="2" precision="FP32" names="1552,x.103">
					<dim>-1</dim>
					<dim>96</dim>
					<dim>26</dim>
					<dim>26</dim>
				</port>
			</output>
		</layer>
		<layer id="300" name="__module.model.neck.bottom_up_blocks.0.main_conv.activation/aten::mul/Multiply" type="Swish" version="opset4">
			<input>
				<port id="0" precision="FP32">
					<dim>-1</dim>
					<dim>96</dim>
					<dim>26</dim>
					<dim>26</dim>
				</port>
			</input>
			<output>
				<port id="1" precision="FP32" names="1554,input.193">
					<dim>-1</dim>
					<dim>96</dim>
					<dim>26</dim>
					<dim>26</dim>
				</port>
			</output>
		</layer>
		<layer id="301" name="Multiply_19141" type="Const" version="opset1">
			<data element_type="f32" shape="96, 96, 1, 1" offset="11969204" size="36864" />
			<output>
				<port id="0" precision="FP32">
					<dim>96</dim>
					<dim>96</dim>
					<dim>1</dim>
					<dim>1</dim>
				</port>
			</output>
		</layer>
		<layer id="302" name="Multiply_18783" type="Convolution" version="opset1">
			<data strides="1, 1" dilations="1, 1" pads_begin="0, 0" pads_end="0, 0" auto_pad="explicit" />
			<input>
				<port id="0" precision="FP32">
					<dim>-1</dim>
					<dim>96</dim>
					<dim>26</dim>
					<dim>26</dim>
				</port>
				<port id="1" precision="FP32">
					<dim>96</dim>
					<dim>96</dim>
					<dim>1</dim>
					<dim>1</dim>
				</port>
			</input>
			<output>
				<port id="2" precision="FP32">
					<dim>-1</dim>
					<dim>96</dim>
					<dim>26</dim>
					<dim>26</dim>
				</port>
			</output>
		</layer>
		<layer id="303" name="Constant_18788" type="Const" version="opset1">
			<data element_type="f32" shape="1, 96, 1, 1" offset="12006068" size="384" />
			<output>
				<port id="0" precision="FP32">
					<dim>1</dim>
					<dim>96</dim>
					<dim>1</dim>
					<dim>1</dim>
				</port>
			</output>
		</layer>
		<layer id="304" name="__module.model.neck.bottom_up_blocks.0.blocks.0.conv1.bn/aten::batch_norm/BatchNormInference" type="Add" version="opset1">
			<data auto_broadcast="numpy" />
			<input>
				<port id="0" precision="FP32">
					<dim>-1</dim>
					<dim>96</dim>
					<dim>26</dim>
					<dim>26</dim>
				</port>
				<port id="1" precision="FP32">
					<dim>1</dim>
					<dim>96</dim>
					<dim>1</dim>
					<dim>1</dim>
				</port>
			</input>
			<output>
				<port id="2" precision="FP32" names="1571,x.105">
					<dim>-1</dim>
					<dim>96</dim>
					<dim>26</dim>
					<dim>26</dim>
				</port>
			</output>
		</layer>
		<layer id="305" name="__module.model.neck.bottom_up_blocks.0.blocks.0.conv1.activation/aten::mul/Multiply" type="Swish" version="opset4">
			<input>
				<port id="0" precision="FP32">
					<dim>-1</dim>
					<dim>96</dim>
					<dim>26</dim>
					<dim>26</dim>
				</port>
			</input>
			<output>
				<port id="1" precision="FP32" names="1573,input.197">
					<dim>-1</dim>
					<dim>96</dim>
					<dim>26</dim>
					<dim>26</dim>
				</port>
			</output>
		</layer>
		<layer id="306" name="Multiply_19145" type="Const" version="opset1">
			<data element_type="f32" shape="96, 96, 3, 3" offset="12006452" size="331776" />
			<output>
				<port id="0" precision="FP32">
					<dim>96</dim>
					<dim>96</dim>
					<dim>3</dim>
					<dim>3</dim>
				</port>
			</output>
		</layer>
		<layer id="307" name="Multiply_18790" type="Convolution" version="opset1">
			<data strides="1, 1" dilations="1, 1" pads_begin="1, 1" pads_end="1, 1" auto_pad="explicit" />
			<input>
				<port id="0" precision="FP32">
					<dim>-1</dim>
					<dim>96</dim>
					<dim>26</dim>
					<dim>26</dim>
				</port>
				<port id="1" precision="FP32">
					<dim>96</dim>
					<dim>96</dim>
					<dim>3</dim>
					<dim>3</dim>
				</port>
			</input>
			<output>
				<port id="2" precision="FP32">
					<dim>-1</dim>
					<dim>96</dim>
					<dim>26</dim>
					<dim>26</dim>
				</port>
			</output>
		</layer>
		<layer id="308" name="Constant_18795" type="Const" version="opset1">
			<data element_type="f32" shape="1, 96, 1, 1" offset="12338228" size="384" />
			<output>
				<port id="0" precision="FP32">
					<dim>1</dim>
					<dim>96</dim>
					<dim>1</dim>
					<dim>1</dim>
				</port>
			</output>
		</layer>
		<layer id="309" name="__module.model.neck.bottom_up_blocks.0.blocks.0.conv2.bn/aten::batch_norm/BatchNormInference" type="Add" version="opset1">
			<data auto_broadcast="numpy" />
			<input>
				<port id="0" precision="FP32">
					<dim>-1</dim>
					<dim>96</dim>
					<dim>26</dim>
					<dim>26</dim>
				</port>
				<port id="1" precision="FP32">
					<dim>1</dim>
					<dim>96</dim>
					<dim>1</dim>
					<dim>1</dim>
				</port>
			</input>
			<output>
				<port id="2" precision="FP32" names="1587,x.107">
					<dim>-1</dim>
					<dim>96</dim>
					<dim>26</dim>
					<dim>26</dim>
				</port>
			</output>
		</layer>
		<layer id="310" name="__module.model.neck.bottom_up_blocks.0.blocks.0.conv2.activation/aten::mul/Multiply" type="Swish" version="opset4">
			<input>
				<port id="0" precision="FP32">
					<dim>-1</dim>
					<dim>96</dim>
					<dim>26</dim>
					<dim>26</dim>
				</port>
			</input>
			<output>
				<port id="1" precision="FP32" names="1589,x_main.13">
					<dim>-1</dim>
					<dim>96</dim>
					<dim>26</dim>
					<dim>26</dim>
				</port>
			</output>
		</layer>
		<layer id="311" name="Multiply_19149" type="Const" version="opset1">
			<data element_type="f32" shape="96, 192, 1, 1" offset="12338612" size="73728" />
			<output>
				<port id="0" precision="FP32">
					<dim>96</dim>
					<dim>192</dim>
					<dim>1</dim>
					<dim>1</dim>
				</port>
			</output>
		</layer>
		<layer id="312" name="Multiply_18797" type="Convolution" version="opset1">
			<data strides="1, 1" dilations="1, 1" pads_begin="0, 0" pads_end="0, 0" auto_pad="explicit" />
			<input>
				<port id="0" precision="FP32">
					<dim>-1</dim>
					<dim>192</dim>
					<dim>26</dim>
					<dim>26</dim>
				</port>
				<port id="1" precision="FP32">
					<dim>96</dim>
					<dim>192</dim>
					<dim>1</dim>
					<dim>1</dim>
				</port>
			</input>
			<output>
				<port id="2" precision="FP32">
					<dim>-1</dim>
					<dim>96</dim>
					<dim>26</dim>
					<dim>26</dim>
				</port>
			</output>
		</layer>
		<layer id="313" name="Constant_18802" type="Const" version="opset1">
			<data element_type="f32" shape="1, 96, 1, 1" offset="12412340" size="384" />
			<output>
				<port id="0" precision="FP32">
					<dim>1</dim>
					<dim>96</dim>
					<dim>1</dim>
					<dim>1</dim>
				</port>
			</output>
		</layer>
		<layer id="314" name="__module.model.neck.bottom_up_blocks.0.short_conv.bn/aten::batch_norm/BatchNormInference" type="Add" version="opset1">
			<data auto_broadcast="numpy" />
			<input>
				<port id="0" precision="FP32">
					<dim>-1</dim>
					<dim>96</dim>
					<dim>26</dim>
					<dim>26</dim>
				</port>
				<port id="1" precision="FP32">
					<dim>1</dim>
					<dim>96</dim>
					<dim>1</dim>
					<dim>1</dim>
				</port>
			</input>
			<output>
				<port id="2" precision="FP32" names="1536,x.101">
					<dim>-1</dim>
					<dim>96</dim>
					<dim>26</dim>
					<dim>26</dim>
				</port>
			</output>
		</layer>
		<layer id="315" name="__module.model.neck.bottom_up_blocks.0.short_conv.activation/aten::mul/Multiply" type="Swish" version="opset4">
			<input>
				<port id="0" precision="FP32">
					<dim>-1</dim>
					<dim>96</dim>
					<dim>26</dim>
					<dim>26</dim>
				</port>
			</input>
			<output>
				<port id="1" precision="FP32" names="1538,x_short.13">
					<dim>-1</dim>
					<dim>96</dim>
					<dim>26</dim>
					<dim>26</dim>
				</port>
			</output>
		</layer>
		<layer id="316" name="__module.model.neck.bottom_up_blocks.0/aten::cat/Concat" type="Concat" version="opset1">
			<data axis="1" />
			<input>
				<port id="0" precision="FP32">
					<dim>-1</dim>
					<dim>96</dim>
					<dim>26</dim>
					<dim>26</dim>
				</port>
				<port id="1" precision="FP32">
					<dim>-1</dim>
					<dim>96</dim>
					<dim>26</dim>
					<dim>26</dim>
				</port>
			</input>
			<output>
				<port id="2" precision="FP32" names="1591,input.201">
					<dim>-1</dim>
					<dim>192</dim>
					<dim>26</dim>
					<dim>26</dim>
				</port>
			</output>
		</layer>
		<layer id="317" name="Multiply_19153" type="Const" version="opset1">
			<data element_type="f32" shape="192, 192, 1, 1" offset="12412724" size="147456" />
			<output>
				<port id="0" precision="FP32">
					<dim>192</dim>
					<dim>192</dim>
					<dim>1</dim>
					<dim>1</dim>
				</port>
			</output>
		</layer>
		<layer id="318" name="Multiply_18804" type="Convolution" version="opset1">
			<data strides="1, 1" dilations="1, 1" pads_begin="0, 0" pads_end="0, 0" auto_pad="explicit" />
			<input>
				<port id="0" precision="FP32">
					<dim>-1</dim>
					<dim>192</dim>
					<dim>26</dim>
					<dim>26</dim>
				</port>
				<port id="1" precision="FP32">
					<dim>192</dim>
					<dim>192</dim>
					<dim>1</dim>
					<dim>1</dim>
				</port>
			</input>
			<output>
				<port id="2" precision="FP32">
					<dim>-1</dim>
					<dim>192</dim>
					<dim>26</dim>
					<dim>26</dim>
				</port>
			</output>
		</layer>
		<layer id="319" name="Constant_18809" type="Const" version="opset1">
			<data element_type="f32" shape="1, 192, 1, 1" offset="12560180" size="768" />
			<output>
				<port id="0" precision="FP32">
					<dim>1</dim>
					<dim>192</dim>
					<dim>1</dim>
					<dim>1</dim>
				</port>
			</output>
		</layer>
		<layer id="320" name="__module.model.neck.bottom_up_blocks.0.final_conv.bn/aten::batch_norm/BatchNormInference" type="Add" version="opset1">
			<data auto_broadcast="numpy" />
			<input>
				<port id="0" precision="FP32">
					<dim>-1</dim>
					<dim>192</dim>
					<dim>26</dim>
					<dim>26</dim>
				</port>
				<port id="1" precision="FP32">
					<dim>1</dim>
					<dim>192</dim>
					<dim>1</dim>
					<dim>1</dim>
				</port>
			</input>
			<output>
				<port id="2" precision="FP32" names="1605,x.109">
					<dim>-1</dim>
					<dim>192</dim>
					<dim>26</dim>
					<dim>26</dim>
				</port>
			</output>
		</layer>
…
		<edge from-layer="43" from-port="1" to-layer="45" to-port="0" />
		<edge from-layer="44" from-port="0" to-layer="45" to-port="1" />
		<edge from-layer="45" from-port="2" to-layer="47" to-port="0" />
		<edge from-layer="46" from-port="0" to-layer="47" to-port="1" />
		<edge from-layer="47" from-port="2" to-layer="48" to-port="0" />
		<edge from-layer="48" from-port="1" to-layer="50" to-port="0" />
		<edge from-layer="48" from-port="1" to-layer="88" to-port="0" />
		<edge from-layer="49" from-port="0" to-layer="50" to-port="1" />
		<edge from-layer="50" from-port="2" to-layer="52" to-port="0" />
		<edge from-layer="51" from-port="0" to-layer="52" to-port="1" />
		<edge from-layer="52" from-port="2" to-layer="53" to-port="0" />
		<edge from-layer="53" from-port="1" to-layer="64" to-port="1" />
		<edge from-layer="53" from-port="1" to-layer="55" to-port="0" />
		<edge from-layer="54" from-port="0" to-layer="55" to-port="1" />
		<edge from-layer="55" from-port="2" to-layer="57" to-port="0" />
		<edge from-layer="56" from-port="0" to-layer="57" to-port="1" />
		<edge from-layer="57" from-port="2" to-layer="58" to-port="0" />
		<edge from-layer="58" from-port="1" to-layer="60" to-port="0" />
		<edge from-layer="59" from-port="0" to-layer="60" to-port="1" />
		<edge from-layer="60" from-port="2" to-layer="62" to-port="0" />
		<edge from-layer="61" from-port="0" to-layer="62" to-port="1" />
		<edge from-layer="62" from-port="2" to-layer="63" to-port="0" />
		<edge from-layer="63" from-port="1" to-layer="64" to-port="0" />
		<edge from-layer="64" from-port="2" to-layer="75" to-port="1" />
		<edge from-layer="64" from-port="2" to-layer="66" to-port="0" />
		<edge from-layer="65" from-port="0" to-layer="66" to-port="1" />
		<edge from-layer="66" from-port="2" to-layer="68" to-port="0" />
		<edge from-layer="67" from-port="0" to-layer="68" to-port="1" />
		<edge from-layer="68" from-port="2" to-layer="69" to-port="0" />
		<edge from-layer="69" from-port="1" to-layer="71" to-port="0" />
		<edge from-layer="70" from-port="0" to-layer="71" to-port="1" />
		<edge from-layer="71" from-port="2" to-layer="73" to-port="0" />
		<edge from-layer="72" from-port="0" to-layer="73" to-port="1" />
		<edge from-layer="73" from-port="2" to-layer="74" to-port="0" />
		<edge from-layer="74" from-port="1" to-layer="75" to-port="0" />
		<edge from-layer="75" from-port="2" to-layer="86" to-port="1" />
		<edge from-layer="75" from-port="2" to-layer="77" to-port="0" />
		<edge from-layer="76" from-port="0" to-layer="77" to-port="1" />
		<edge from-layer="77" from-port="2" to-layer="79" to-port="0" />
		<edge from-layer="78" from-port="0" to-layer="79" to-port="1" />
		<edge from-layer="79" from-port="2" to-layer="80" to-port="0" />
		<edge from-layer="80" from-port="1" to-layer="82" to-port="0" />
		<edge from-layer="81" from-port="0" to-layer="82" to-port="1" />
		<edge from-layer="82" from-port="2" to-layer="84" to-port="0" />
		<edge from-layer="83" from-port="0" to-layer="84" to-port="1" />
		<edge from-layer="84" from-port="2" to-layer="85" to-port="0" />
		<edge from-layer="85" from-port="1" to-layer="86" to-port="0" />
		<edge from-layer="86" from-port="2" to-layer="92" to-port="0" />
		<edge from-layer="87" from-port="0" to-layer="88" to-port="1" />
		<edge from-layer="88" from-port="2" to-layer="90" to-port="0" />
		<edge from-layer="89" from-port="0" to-layer="90" to-port="1" />
		<edge from-layer="90" from-port="2" to-layer="91" to-port="0" />
		<edge from-layer="91" from-port="1" to-layer="92" to-port="1" />
		<edge from-layer="92" from-port="2" to-layer="94" to-port="0" />
		<edge from-layer="93" from-port="0" to-layer="94" to-port="1" />
		<edge from-layer="94" from-port="2" to-layer="96" to-port="0" />
		<edge from-layer="95" from-port="0" to-layer="96" to-port="1" />
		<edge from-layer="96" from-port="2" to-layer="97" to-port="0" />
		<edge from-layer="97" from-port="1" to-layer="99" to-port="0" />
		<edge from-layer="97" from-port="1" to-layer="240" to-port="1" />
		<edge from-layer="98" from-port="0" to-layer="99" to-port="1" />
		<edge from-layer="99" from-port="2" to-layer="101" to-port="0" />
		<edge from-layer="100" from-port="0" to-layer="101" to-port="1" />
		<edge from-layer="101" from-port="2" to-layer="102" to-port="0" />
		<edge from-layer="102" from-port="1" to-layer="142" to-port="0" />
		<edge from-layer="102" from-port="1" to-layer="104" to-port="0" />
		<edge from-layer="103" from-port="0" to-layer="104" to-port="1" />
		<edge from-layer="104" from-port="2" to-layer="106" to-port="0" />
		<edge from-layer="105" from-port="0" to-layer="106" to-port="1" />
		<edge from-layer="106" from-port="2" to-layer="107" to-port="0" />
		<edge from-layer="107" from-port="1" to-layer="109" to-port="0" />
		<edge from-layer="107" from-port="1" to-layer="118" to-port="1" />
		<edge from-layer="108" from-port="0" to-layer="109" to-port="1" />
		<edge from-layer="109" from-port="2" to-layer="111" to-port="0" />
		<edge from-layer="110" from-port="0" to-layer="111" to-port="1" />
		<edge from-layer="111" from-port="2" to-layer="112" to-port="0" />
		<edge from-layer="112" from-port="1" to-layer="114" to-port="0" />
		<edge from-layer="113" from-port="0" to-layer="114" to-port="1" />
		<edge from-layer="114" from-port="2" to-layer="116" to-port="0" />
		<edge from-layer="115" from-port="0" to-layer="116" to-port="1" />
		<edge from-layer="116" from-port="2" to-layer="117" to-port="0" />
		<edge from-layer="117" from-port="1" to-layer="118" to-port="0" />
		<edge from-layer="118" from-port="2" to-layer="120" to-port="0" />
		<edge from-layer="118" from-port="2" to-layer="129" to-port="1" />
		<edge from-layer="119" from-port="0" to-layer="120" to-port="1" />
		<edge from-layer="120" from-port="2" to-layer="122" to-port="0" />
		<edge from-layer="121" from-port="0" to-layer="122" to-port="1" />
		<edge from-layer="122" from-port="2" to-layer="123" to-port="0" />
		<edge from-layer="123" from-port="1" to-layer="125" to-port="0" />
		<edge from-layer="124" from-port="0" to-layer="125" to-port="1" />
		<edge from-layer="125" from-port="2" to-layer="127" to-port="0" />
		<edge from-layer="126" from-port="0" to-layer="127" to-port="1" />
		<edge from-layer="127" from-port="2" to-layer="128" to-port="0" />
		<edge from-layer="128" from-port="1" to-layer="129" to-port="0" />
		<edge from-layer="129" from-port="2" to-layer="140" to-port="1" />
		<edge from-layer="129" from-port="2" to-layer="131" to-port="0" />
		<edge from-layer="130" from-port="0" to-layer="131" to-port="1" />
		<edge from-layer="131" from-port="2" to-layer="133" to-port="0" />
		<edge from-layer="132" from-port="0" to-layer="133" to-port="1" />
		<edge from-layer="133" from-port="2" to-layer="134" to-port="0" />
		<edge from-layer="134" from-port="1" to-layer="136" to-port="0" />
		<edge from-layer="135" from-port="0" to-layer="136" to-port="1" />
		<edge from-layer="136" from-port="2" to-layer="138" to-port="0" />
		<edge from-layer="137" from-port="0" to-layer="138" to-port="1" />
		<edge from-layer="138" from-port="2" to-layer="139" to-port="0" />
		<edge from-layer="139" from-port="1" to-layer="140" to-port="0" />
		<edge from-layer="140" from-port="2" to-layer="146" to-port="0" />
		<edge from-layer="141" from-port="0" to-layer="142" to-port="1" />
		<edge from-layer="142" from-port="2" to-layer="144" to-port="0" />
		<edge from-layer="143" from-port="0" to-layer="144" to-port="1" />
		<edge from-layer="144" from-port="2" to-layer="145" to-port="0" />
		<edge from-layer="145" from-port="1" to-layer="146" to-port="1" />
		<edge from-layer="146" from-port="2" to-layer="148" to-port="0" />
		<edge from-layer="147" from-port="0" to-layer="148" to-port="1" />
		<edge from-layer="148" from-port="2" to-layer="150" to-port="0" />
		<edge from-layer="149" from-port="0" to-layer="150" to-port="1" />
		<edge from-layer="150" from-port="2" to-layer="151" to-port="0" />
		<edge from-layer="151" from-port="1" to-layer="153" to-port="0" />
		<edge from-layer="151" from-port="1" to-layer="205" to-port="1" />
		<edge from-layer="152" from-port="0" to-layer="153" to-port="1" />
		<edge from-layer="153" from-port="2" to-layer="155" to-port="0" />
		<edge from-layer="154" from-port="0" to-layer="155" to-port="1" />
		<edge from-layer="155" from-port="2" to-layer="156" to-port="0" />
		<edge from-layer="156" from-port="1" to-layer="158" to-port="0" />
		<edge from-layer="157" from-port="0" to-layer="158" to-port="1" />
		<edge from-layer="158" from-port="2" to-layer="160" to-port="0" />
		<edge from-layer="159" from-port="0" to-layer="160" to-port="1" />
		<edge from-layer="160" from-port="2" to-layer="161" to-port="0" />
		<edge from-layer="161" from-port="1" to-layer="162" to-port="0" />
		<edge from-layer="161" from-port="1" to-layer="163" to-port="0" />
		<edge from-layer="161" from-port="1" to-layer="164" to-port="0" />
		<edge from-layer="161" from-port="1" to-layer="165" to-port="0" />
		<edge from-layer="162" from-port="1" to-layer="165" to-port="1" />
		<edge from-layer="163" from-port="1" to-layer="165" to-port="2" />
		<edge from-layer="164" from-port="1" to-layer="165" to-port="3" />
		<edge from-layer="165" from-port="4" to-layer="167" to-port="0" />
		<edge from-layer="166" from-port="0" to-layer="167" to-port="1" />
		<edge from-layer="167" from-port="2" to-layer="169" to-port="0" />
		<edge from-layer="168" from-port="0" to-layer="169" to-port="1" />
		<edge from-layer="169" from-port="2" to-layer="170" to-port="0" />
		<edge from-layer="170" from-port="1" to-layer="187" to-port="0" />
		<edge from-layer="170" from-port="1" to-layer="172" to-port="0" />
		<edge from-layer="171" from-port="0" to-layer="172" to-port="1" />
		<edge from-layer="172" from-port="2" to-layer="174" to-port="0" />
		<edge from-layer="173" from-port="0" to-layer="174" to-port="1" />
		<edge from-layer="174" from-port="2" to-layer="175" to-port="0" />
		<edge from-layer="175" from-port="1" to-layer="177" to-port="0" />
		<edge from-layer="176" from-port="0" to-layer="177" to-port="1" />
		<edge from-layer="177" from-port="2" to-layer="179" to-port="0" />
		<edge from-layer="178" from-port="0" to-layer="179" to-port="1" />
		<edge from-layer="179" from-port="2" to-layer="180" to-port="0" />
		<edge from-layer="180" from-port="1" to-layer="182" to-port="0" />
		<edge from-layer="181" from-port="0" to-layer="182" to-port="1" />
		<edge from-layer="182" from-port="2" to-layer="184" to-port="0" />
		<edge from-layer="183" from-port="0" to-layer="184" to-port="1" />
		<edge from-layer="184" from-port="2" to-layer="185" to-port="0" />
		<edge from-layer="185" from-port="1" to-layer="191" to-port="0" />
		<edge from-layer="186" from-port="0" to-layer="187" to-port="1" />
		<edge from-layer="187" from-port="2" to-layer="189" to-port="0" />
		<edge from-layer="188" from-port="0" to-layer="189" to-port="1" />
		<edge from-layer="189" from-port="2" to-layer="190" to-port="0" />
		<edge from-layer="190" from-port="1" to-layer="191" to-port="1" />
		<edge from-layer="191" from-port="2" to-layer="193" to-port="0" />
		<edge from-layer="192" from-port="0" to-layer="193" to-port="1" />
		<edge from-layer="193" from-port="2" to-layer="195" to-port="0" />
		<edge from-layer="194" from-port="0" to-layer="195" to-port="1" />
		<edge from-layer="195" from-port="2" to-layer="196" to-port="0" />
		<edge from-layer="196" from-port="1" to-layer="198" to-port="0" />
		<edge from-layer="197" from-port="0" to-layer="198" to-port="1" />
		<edge from-layer="198" from-port="2" to-layer="200" to-port="0" />
		<edge from-layer="199" from-port="0" to-layer="200" to-port="1" />
		<edge from-layer="200" from-port="2" to-layer="201" to-port="0" />
		<edge from-layer="201" from-port="1" to-layer="204" to-port="0" />
		<edge from-layer="201" from-port="1" to-layer="350" to-port="1" />
		<edge from-layer="202" from-port="0" to-layer="204" to-port="1" />
		<edge from-layer="203" from-port="0" to-layer="204" to-port="2" />
		<edge from-layer="204" from-port="3" to-layer="205" to-port="0" />
		<edge from-layer="205" from-port="2" to-layer="207" to-port="0" />
		<edge from-layer="205" from-port="2" to-layer="222" to-port="0" />
		<edge from-layer="206" from-port="0" to-layer="207" to-port="1" />
		<edge from-layer="207" from-port="2" to-layer="209" to-port="0" />
		<edge from-layer="208" from-port="0" to-layer="209" to-port="1" />
		<edge from-layer="209" from-port="2" to-layer="210" to-port="0" />
		<edge from-layer="210" from-port="1" to-layer="212" to-port="0" />
		<edge from-layer="211" from-port="0" to-layer="212" to-port="1" />
		<edge from-layer="212" from-port="2" to-layer="214" to-port="0" />
		<edge from-layer="213" from-port="0" to-layer="214" to-port="1" />
		<edge from-layer="214" from-port="2" to-layer="215" to-port="0" />
		<edge from-layer="215" from-port="1" to-layer="217" to-port="0" />
		<edge from-layer="216" from-port="0" to-layer="217" to-port="1" />
		<edge from-layer="217" from-port="2" to-layer="219" to-port="0" />
		<edge from-layer="218" from-port="0" to-layer="219" to-port="1" />
		<edge from-layer="219" from-port="2" to-layer="220" to-port="0" />
		<edge from-layer="220" from-port="1" to-layer="226" to-port="0" />
		<edge from-layer="221" from-port="0" to-layer="222" to-port="1" />
		<edge from-layer="222" from-port="2" to-layer="224" to-port="0" />
		<edge from-layer="223" from-port="0" to-layer="224" to-port="1" />
		<edge from-layer="224" from-port="2" to-layer="225" to-port="0" />
		<edge from-layer="225" from-port="1" to-layer="226" to-port="1" />
		<edge from-layer="226" from-port="2" to-layer="228" to-port="0" />
		<edge from-layer="227" from-port="0" to-layer="228" to-port="1" />
		<edge from-layer="228" from-port="2" to-layer="230" to-port="0" />
		<edge from-layer="229" from-port="0" to-layer="230" to-port="1" />
		<edge from-layer="230" from-port="2" to-layer="231" to-port="0" />
		<edge from-layer="231" from-port="1" to-layer="233" to-port="0" />
		<edge from-layer="232" from-port="0" to-layer="233" to-port="1" />
		<edge from-layer="233" from-port="2" to-layer="235" to-port="0" />
		<edge from-layer="234" from-port="0" to-layer="235" to-port="1" />
		<edge from-layer="235" from-port="2" to-layer="236" to-port="0" />
		<edge from-layer="236" from-port="1" to-layer="295" to-port="1" />
		<edge from-layer="236" from-port="1" to-layer="239" to-port="0" />
		<edge from-layer="237" from-port="0" to-layer="239" to-port="1" />
		<edge from-layer="238" from-port="0" to-layer="239" to-port="2" />
		<edge from-layer="239" from-port="3" to-layer="240" to-port="0" />
		<edge from-layer="240" from-port="2" to-layer="257" to-port="0" />
		<edge from-layer="240" from-port="2" to-layer="242" to-port="0" />
		<edge from-layer="241" from-port="0" to-layer="242" to-port="1" />
		<edge from-layer="242" from-port="2" to-layer="244" to-port="0" />
		<edge from-layer="243" from-port="0" to-layer="244" to-port="1" />
		<edge from-layer="244" from-port="2" to-layer="245" to-port="0" />
		<edge from-layer="245" from-port="1" to-layer="247" to-port="0" />
		<edge from-layer="246" from-port="0" to-layer="247" to-port="1" />
		<edge from-layer="247" from-port="2" to-layer="249" to-port="0" />
		<edge from-layer="248" from-port="0" to-layer="249" to-port="1" />
		<edge from-layer="249" from-port="2" to-layer="250" to-port="0" />
		<edge from-layer="250" from-port="1" to-layer="252" to-port="0" />
		<edge from-layer="251" from-port="0" to-layer="252" to-port="1" />
		<edge from-layer="252" from-port="2" to-layer="254" to-port="0" />
		<edge from-layer="253" from-port="0" to-layer="254" to-port="1" />
		<edge from-layer="254" from-port="2" to-layer="255" to-port="0" />
		<edge from-layer="255" from-port="1" to-layer="261" to-port="0" />
		<edge from-layer="256" from-port="0" to-layer="257" to-port="1" />
		<edge from-layer="257" from-port="2" to-layer="259" to-port="0" />
		<edge from-layer="258" from-port="0" to-layer="259" to-port="1" />
		<edge from-layer="259" from-port="2" to-layer="260" to-port="0" />
		<edge from-layer="260" from-port="1" to-layer="261" to-port="1" />
		<edge from-layer="261" from-port="2" to-layer="263" to-port="0" />
		<edge from-layer="262" from-port="0" to-layer="263" to-port="1" />
		<edge from-layer="263" from-port="2" to-layer="265" to-port="0" />
		<edge from-layer="264" from-port="0" to-layer="265" to-port="1" />
		<edge from-layer="265" from-port="2" to-layer="266" to-port="0" />
		<edge from-layer="266" from-port="1" to-layer="291" to-port="0" />
		<edge from-layer="266" from-port="1" to-layer="268" to-port="0" />
		<edge from-layer="267" from-port="0" to-layer="268" to-port="1" />
		<edge from-layer="268" from-port="2" to-layer="270" to-port="0" />
		<edge from-layer="269" from-port="0" to-layer="270" to-port="1" />
		<edge from-layer="270" from-port="2" to-layer="271" to-port="0" />
		<edge from-layer="271" from-port="1" to-layer="273" to-port="0" />
		<edge from-layer="271" from-port="1" to-layer="403" to-port="0" />
		<edge from-layer="272" from-port="0" to-layer="273" to-port="1" />
		<edge from-layer="273" from-port="2" to-layer="275" to-port="0" />
		<edge from-layer="274" from-port="0" to-layer="275" to-port="1" />
		<edge from-layer="275" from-port="2" to-layer="276" to-port="0" />
		<edge from-layer="276" from-port="1" to-layer="278" to-port="0" />
		<edge from-layer="277" from-port="0" to-layer="278" to-port="1" />
		<edge from-layer="278" from-port="2" to-layer="280" to-port="0" />
		<edge from-layer="279" from-port="0" to-layer="280" to-port="1" />
		<edge from-layer="280" from-port="2" to-layer="281" to-port="0" />
		<edge from-layer="281" from-port="1" to-layer="283" to-port="0" />
		<edge from-layer="282" from-port="0" to-layer="283" to-port="1" />
		<edge from-layer="283" from-port="2" to-layer="285" to-port="0" />
		<edge from-layer="284" from-port="0" to-layer="285" to-port="1" />
		<edge from-layer="285" from-port="2" to-layer="287" to-port="0" />
		<edge from-layer="285" from-port="2" to-layer="524" to-port="0" />
		<edge from-layer="286" from-port="0" to-layer="287" to-port="1" />
		<edge from-layer="287" from-port="2" to-layer="289" to-port="0" />
		<edge from-layer="288" from-port="0" to-layer="289" to-port="1" />
		<edge from-layer="289" from-port="2" to-layer="400" to-port="0" />
		<edge from-layer="290" from-port="0" to-layer="291" to-port="1" />
		<edge from-layer="291" from-port="2" to-layer="293" to-port="0" />
		<edge from-layer="292" from-port="0" to-layer="293" to-port="1" />
		<edge from-layer="293" from-port="2" to-layer="294" to-port="0" />
		<edge from-layer="294" from-port="1" to-layer="295" to-port="0" />
		<edge from-layer="295" from-port="2" to-layer="312" to-port="0" />
		<edge from-layer="295" from-port="2" to-layer="297" to-port="0" />
		<edge from-layer="296" from-port="0" to-layer="297" to-port="1" />
		<edge from-layer="297" from-port="2" to-layer="299" to-port="0" />
		<edge from-layer="298" from-port="0" to-layer="299" to-port="1" />
		<edge from-layer="299" from-port="2" to-layer="300" to-port="0" />
		<edge from-layer="300" from-port="1" to-layer="302" to-port="0" />
		<edge from-layer="301" from-port="0" to-layer="302" to-port="1" />
		<edge from-layer="302" from-port="2" to-layer="304" to-port="0" />
		<edge from-layer="303" from-port="0" to-layer="304" to-port="1" />
		<edge from-layer="304" from-port="2" to-layer="305" to-port="0" />
		<edge from-layer="305" from-port="1" to-layer="307" to-port="0" />
		<edge from-layer="306" from-port="0" to-layer="307" to-port="1" />
		<edge from-layer="307" from-port="2" to-layer="309" to-port="0" />
		<edge from-layer="308" from-port="0" to-layer="309" to-port="1" />
		<edge from-layer="309" from-port="2" to-layer="310" to-port="0" />
		<edge from-layer="310" from-port="1" to-layer="316" to-port="0" />
		<edge from-layer="311" from-port="0" to-layer="312" to-port="1" />
		<edge from-layer="312" from-port="2" to-layer="314" to-port="0" />
		<edge from-layer="313" from-port="0" to-layer="314" to-port="1" />
		<edge from-layer="314" from-port="2" to-layer="315" to-port="0" />
		<edge from-layer="315" from-port="1" to-layer="316" to-port="1" />
		<edge from-layer="316" from-port="2" to-layer="318" to-port="0" />
		<edge from-layer="317" from-port="0" to-layer="318" to-port="1" />
		<edge from-layer="318" from-port="2" to-layer="320" to-port="0" />
		<edge from-layer="319" from-port="0" to-layer="320" to-port="1" />
		<edge from-layer="320" from-port="2" to-layer="321" to-port="0" />
		<edge from-layer="321" from-port="1" to-layer="323" to-port="0" />
		<edge from-layer="321" from-port="1" to-layer="346" to-port="0" />
		<edge from-layer="322" from-port="0" to-layer="323" to-port="1" />
		<edge from-layer="323" from-port="2" to-layer="325" to-port="0" />
		<edge from-layer="324" from-port="0" to-layer="325" to-port="1" />
		<edge from-layer="325" from-port="2" to-layer="326" to-port="0" />
		<edge from-layer="326" from-port="1" to-layer="328" to-port="0" />
		<edge from-layer="326" from-port="1" to-layer="419" to-port="0" />
		<edge from-layer="327" from-port="0" to-layer="328" to-port="1" />
		<edge from-layer="328" from-port="2" to-layer="330" to-port="0" />
		<edge from-layer="329" from-port="0" to-layer="330" to-port="1" />
		<edge from-layer="330" from-port="2" to-layer="331" to-port="0" />
		<edge from-layer="331" from-port="1" to-layer="333" to-port="0" />
		<edge from-layer="332" from-port="0" to-layer="333" to-port="1" />
		<edge from-layer="333" from-port="2" to-layer="335" to-port="0" />
		<edge from-layer="334" from-port="0" to-layer="335" to-port="1" />
		<edge from-layer="335" from-port="2" to-layer="336" to-port="0" />
		<edge from-layer="336" from-port="1" to-layer="338" to-port="0" />
		<edge from-layer="337" from-port="0" to-layer="338" to-port="1" />
		<edge from-layer="338" from-port="2" to-layer="340" to-port="0" />
		<edge from-layer="339" from-port="0" to-layer="340" to-port="1" />
		<edge from-layer="340" from-port="2" to-layer="342" to-port="0" />
		<edge from-layer="340" from-port="2" to-layer="560" to-port="0" />
		<edge from-layer="341" from-port="0" to-layer="342" to-port="1" />
		<edge from-layer="342" from-port="2" to-layer="344" to-port="0" />
		<edge from-layer="343" from-port="0" to-layer="344" to-port="1" />
		<edge from-layer="344" from-port="2" to-layer="400" to-port="1" />
		<edge from-layer="345" from-port="0" to-layer="346" to-port="1" />
		<edge from-layer="346" from-port="2" to-layer="348" to-port="0" />
		<edge from-layer="347" from-port="0" to-layer="348" to-port="1" />
		<edge from-layer="348" from-port="2" to-layer="349" to-port="0" />
		<edge from-layer="349" from-port="1" to-layer="350" to-port="0" />
		<edge from-layer="350" from-port="2" to-layer="352" to-port="0" />
		<edge from-layer="350" from-port="2" to-layer="367" to-port="0" />
		<edge from-layer="351" from-port="0" to-layer="352" to-port="1" />
		<edge from-layer="352" from-port="2" to-layer="354" to-port="0" />
		<edge from-layer="353" from-port="0" to-layer="354" to-port="1" />
		<edge from-layer="354" from-port="2" to-layer="355" to-port="0" />
		<edge from-layer="355" from-port="1" to-layer="357" to-port="0" />
		<edge from-layer="356" from-port="0" to-layer="357" to-port="1" />
		<edge from-layer="357" from-port="2" to-layer="359" to-port="0" />
		<edge from-layer="358" from-port="0" to-layer="359" to-port="1" />
		<edge from-layer="359" from-port="2" to-layer="360" to-port="0" />
		<edge from-layer="360" from-port="1" to-layer="362" to-port="0" />
		<edge from-layer="361" from-port="0" to-layer="362" to-port="1" />
		<edge from-layer="362" from-port="2" to-layer="364" to-port="0" />
		<edge from-layer="363" from-port="0" to-layer="364" to-port="1" />
		<edge from-layer="364" from-port="2" to-layer="365" to-port="0" />
		<edge from-layer="365" from-port="1" to-layer="371" to-port="0" />
		<edge from-layer="366" from-port="0" to-layer="367" to-port="1" />
		<edge from-layer="367" from-port="2" to-layer="369" to-port="0" />
		<edge from-layer="368" from-port="0" to-layer="369" to-port="1" />
		<edge from-layer="369" from-port="2" to-layer="370" to-port="0" />
		<edge from-layer="370" from-port="1" to-layer="371" to-port="1" />
		<edge from-layer="371" from-port="2" to-layer="373" to-port="0" />
		<edge from-layer="372" from-port="0" to-layer="373" to-port="1" />
		<edge from-layer="373" from-port="2" to-layer="375" to-port="0" />
		<edge from-layer="374" from-port="0" to-layer="375" to-port="1" />
		<edge from-layer="375" from-port="2" to-layer="376" to-port="0" />
		<edge from-layer="376" from-port="1" to-layer="378" to-port="0" />
		<edge from-layer="377" from-port="0" to-layer="378" to-port="1" />
		<edge from-layer="378" from-port="2" to-layer="380" to-port="0" />
		<edge from-layer="379" from-port="0" to-layer="380" to-port="1" />
		<edge from-layer="380" from-port="2" to-layer="381" to-port="0" />
		<edge from-layer="381" from-port="1" to-layer="435" to-port="0" />
		<edge from-layer="381" from-port="1" to-layer="383" to-port="0" />
		<edge from-layer="382" from-port="0" to-layer="383" to-port="1" />
		<edge from-layer="383" from-port="2" to-layer="385" to-port="0" />
		<edge from-layer="384" from-port="0" to-layer="385" to-port="1" />
		<edge from-layer="385" from-port="2" to-layer="386" to-port="0" />
		<edge from-layer="386" from-port="1" to-layer="388" to-port="0" />
		<edge from-layer="387" from-port="0" to-layer="388" to-port="1" />
		<edge from-layer="388" from-port="2" to-layer="390" to-port="0" />
		<edge from-layer="389" from-port="0" to-layer="390" to-port="1" />
		<edge from-layer="390" from-port="2" to-layer="391" to-port="0" />
		<edge from-layer="391" from-port="1" to-layer="393" to-port="0" />
		<edge from-layer="392" from-port="0" to-layer="393" to-port="1" />
		<edge from-layer="393" from-port="2" to-layer="395" to-port="0" />
		<edge from-layer="394" from-port="0" to-layer="395" to-port="1" />
		<edge from-layer="395" from-port="2" to-layer="397" to-port="0" />
		<edge from-layer="395" from-port="2" to-layer="596" to-port="0" />
		<edge from-layer="396" from-port="0" to-layer="397" to-port="1" />
		<edge from-layer="397" from-port="2" to-layer="399" to-port="0" />
		<edge from-layer="398" from-port="0" to-layer="399" to-port="1" />
		<edge from-layer="399" from-port="2" to-layer="400" to-port="2" />
		<edge from-layer="400" from-port="3" to-layer="401" to-port="0" />
		<edge from-layer="401" from-port="1" to-layer="454" to-port="0" />
		<edge from-layer="402" from-port="0" to-layer="403" to-port="1" />
		<edge from-layer="403" from-port="2" to-layer="405" to-port="0" />
		<edge from-layer="404" from-port="0" to-layer="405" to-port="1" />
		<edge from-layer="405" from-port="2" to-layer="406" to-port="0" />
		<edge from-layer="406" from-port="1" to-layer="408" to-port="0" />
		<edge from-layer="407" from-port="0" to-layer="408" to-port="1" />
		<edge from-layer="408" from-port="2" to-layer="410" to-port="0" />
		<edge from-layer="409" from-port="0" to-layer="410" to-port="1" />
		<edge from-layer="410" from-port="2" to-layer="411" to-port="0" />
		<edge from-layer="411" from-port="1" to-layer="413" to-port="0" />
		<edge from-layer="411" from-port="1" to-layer="494" to-port="0" />
		<edge from-layer="412" from-port="0" to-layer="413" to-port="1" />
		<edge from-layer="413" from-port="2" to-layer="415" to-port="0" />
		<edge from-layer="414" from-port="0" to-layer="415" to-port="1" />
		<edge from-layer="415" from-port="2" to-layer="417" to-port="0" />
		<edge from-layer="416" from-port="0" to-layer="417" to-port="1" />
		<edge from-layer="417" from-port="2" to-layer="450" to-port="0" />
		<edge from-layer="418" from-port="0" to-layer="419" to-port="1" />
		<edge from-layer="419" from-port="2" to-layer="421" to-port="0" />
		<edge from-layer="420" from-port="0" to-layer="421" to-port="1" />
		<edge from-layer="421" from-port="2" to-layer="422" to-port="0" />
		<edge from-layer="422" from-port="1" to-layer="424" to-port="0" />
		<edge from-layer="423" from-port="0" to-layer="424" to-port="1" />
		<edge from-layer="424" from-port="2" to-layer="426" to-port="0" />
		<edge from-layer="425" from-port="0" to-layer="426" to-port="1" />
		<edge from-layer="426" from-port="2" to-layer="427" to-port="0" />
		<edge from-layer="427" from-port="1" to-layer="429" to-port="0" />
		<edge from-layer="427" from-port="1" to-layer="502" to-port="0" />
		<edge from-layer="428" from-port="0" to-layer="429" to-port="1" />
		<edge from-layer="429" from-port="2" to-layer="431" to-port="0" />
		<edge from-layer="430" from-port="0" to-layer="431" to-port="1" />
		<edge from-layer="431" from-port="2" to-layer="433" to-port="0" />
		<edge from-layer="432" from-port="0" to-layer="433" to-port="1" />
		<edge from-layer="433" from-port="2" to-layer="450" to-port="1" />
		<edge from-layer="434" from-port="0" to-layer="435" to-port="1" />
		<edge from-layer="435" from-port="2" to-layer="437" to-port="0" />
		<edge from-layer="436" from-port="0" to-layer="437" to-port="1" />
		<edge from-layer="437" from-port="2" to-layer="438" to-port="0" />
		<edge from-layer="438" from-port="1" to-layer="440" to-port="0" />
		<edge from-layer="439" from-port="0" to-layer="440" to-port="1" />
		<edge from-layer="440" from-port="2" to-layer="442" to-port="0" />
		<edge from-layer="441" from-port="0" to-layer="442" to-port="1" />
		<edge from-layer="442" from-port="2" to-layer="443" to-port="0" />
		<edge from-layer="443" from-port="1" to-layer="510" to-port="0" />
		<edge from-layer="443" from-port="1" to-layer="445" to-port="0" />
		<edge from-layer="444" from-port="0" to-layer="445" to-port="1" />
		<edge from-layer="445" from-port="2" to-layer="447" to-port="0" />
		<edge from-layer="446" from-port="0" to-layer="447" to-port="1" />
		<edge from-layer="447" from-port="2" to-layer="449" to-port="0" />
		<edge from-layer="448" from-port="0" to-layer="449" to-port="1" />
		<edge from-layer="449" from-port="2" to-layer="450" to-port="2" />
		<edge from-layer="450" from-port="3" to-layer="451" to-port="0" />
		<edge from-layer="451" from-port="1" to-layer="453" to-port="0" />
		<edge from-layer="452" from-port="0" to-layer="453" to-port="1" />
		<edge from-layer="453" from-port="2" to-layer="454" to-port="1" />
		<edge from-layer="454" from-port="2" to-layer="465" to-port="0" />
		<edge from-layer="454" from-port="2" to-layer="456" to-port="0" />
		<edge from-layer="455" from-port="0" to-layer="456" to-port="1" />
		<edge from-layer="456" from-port="3" to-layer="458" to-port="0" />
		<edge from-layer="457" from-port="0" to-layer="465" to-port="1" />
		<edge from-layer="457" from-port="0" to-layer="458" to-port="1" />
		<edge from-layer="458" from-port="2" to-layer="464" to-port="0" />
		<edge from-layer="458" from-port="2" to-layer="459" to-port="0" />
		<edge from-layer="459" from-port="1" to-layer="461" to-port="0" />
		<edge from-layer="459" from-port="1" to-layer="485" to-port="0" />
		<edge from-layer="460" from-port="0" to-layer="461" to-port="1" />
		<edge from-layer="461" from-port="2" to-layer="463" to-port="0" />
		<edge from-layer="462" from-port="0" to-layer="463" to-port="1" />
		<edge from-layer="463" from-port="2" to-layer="677" to-port="1" />
		<edge from-layer="463" from-port="2" to-layer="464" to-port="1" />
		<edge from-layer="464" from-port="2" to-layer="488" to-port="0" />
		<edge from-layer="465" from-port="2" to-layer="469" to-port="0" />
		<edge from-layer="465" from-port="2" to-layer="467" to-port="0" />
		<edge from-layer="466" from-port="0" to-layer="467" to-port="1" />
		<edge from-layer="467" from-port="2" to-layer="468" to-port="0" />
		<edge from-layer="468" from-port="1" to-layer="469" to-port="1" />
		<edge from-layer="469" from-port="2" to-layer="471" to-port="0" />
		<edge from-layer="470" from-port="0" to-layer="471" to-port="1" />
		<edge from-layer="471" from-port="3" to-layer="472" to-port="0" />
		<edge from-layer="471" from-port="2" to-layer="687" to-port="0" />
		<edge from-layer="472" from-port="1" to-layer="487" to-port="0" />
		<edge from-layer="472" from-port="1" to-layer="682" to-port="0" />
		<edge from-layer="473" from-port="0" to-layer="480" to-port="0" />
		<edge from-layer="474" from-port="1" to-layer="477" to-port="0" />
		<edge from-layer="475" from-port="0" to-layer="477" to-port="1" />
		<edge from-layer="476" from-port="0" to-layer="477" to-port="2" />
		<edge from-layer="477" from-port="3" to-layer="478" to-port="0" />
		<edge from-layer="478" from-port="1" to-layer="480" to-port="1" />
		<edge from-layer="479" from-port="0" to-layer="480" to-port="2" />
		<edge from-layer="480" from-port="3" to-layer="482" to-port="0" />
		<edge from-layer="481" from-port="0" to-layer="482" to-port="1" />
		<edge from-layer="482" from-port="2" to-layer="483" to-port="0" />
		<edge from-layer="483" from-port="1" to-layer="681" to-port="0" />
		<edge from-layer="483" from-port="1" to-layer="486" to-port="0" />
		<edge from-layer="484" from-port="0" to-layer="488" to-port="2" />
		<edge from-layer="484" from-port="0" to-layer="485" to-port="1" />
		<edge from-layer="485" from-port="3" to-layer="486" to-port="1" />
		<edge from-layer="486" from-port="2" to-layer="487" to-port="1" />
		<edge from-layer="487" from-port="2" to-layer="488" to-port="1" />
		<edge from-layer="488" from-port="3" to-layer="490" to-port="0" />
		<edge from-layer="489" from-port="0" to-layer="490" to-port="1" />
		<edge from-layer="490" from-port="2" to-layer="491" to-port="0" />
		<edge from-layer="491" from-port="1" to-layer="492" to-port="0" />
		<edge from-layer="493" from-port="0" to-layer="494" to-port="1" />
		<edge from-layer="494" from-port="2" to-layer="496" to-port="0" />
		<edge from-layer="495" from-port="0" to-layer="496" to-port="1" />
		<edge from-layer="496" from-port="2" to-layer="498" to-port="0" />
		<edge from-layer="497" from-port="0" to-layer="498" to-port="1" />
		<edge from-layer="498" from-port="2" to-layer="500" to-port="0" />
		<edge from-layer="499" from-port="0" to-layer="500" to-port="1" />
		<edge from-layer="500" from-port="2" to-layer="517" to-port="0" />
		<edge from-layer="501" from-port="0" to-layer="502" to-port="1" />
		<edge from-layer="502" from-port="2" to-layer="504" to-port="0" />
		<edge from-layer="503" from-port="0" to-layer="504" to-port="1" />
		<edge from-layer="504" from-port="2" to-layer="506" to-port="0" />
		<edge from-layer="505" from-port="0" to-layer="506" to-port="1" />
		<edge from-layer="506" from-port="2" to-layer="508" to-port="0" />
		<edge from-layer="507" from-port="0" to-layer="508" to-port="1" />
		<edge from-layer="508" from-port="2" to-layer="517" to-port="1" />
		<edge from-layer="509" from-port="0" to-layer="510" to-port="1" />
		<edge from-layer="510" from-port="2" to-layer="512" to-port="0" />
		<edge from-layer="511" from-port="0" to-layer="512" to-port="1" />
		<edge from-layer="512" from-port="2" to-layer="514" to-port="0" />
		<edge from-layer="513" from-port="0" to-layer="514" to-port="1" />
		<edge from-layer="514" from-port="2" to-layer="516" to-port="0" />
		<edge from-layer="515" from-port="0" to-layer="516" to-port="1" />
		<edge from-layer="516" from-port="2" to-layer="517" to-port="2" />
		<edge from-layer="517" from-port="3" to-layer="651" to-port="0" />
		<edge from-layer="517" from-port="3" to-layer="522" to-port="0" />
		<edge from-layer="518" from-port="0" to-layer="522" to-port="1" />
		<edge from-layer="519" from-port="0" to-layer="522" to-port="2" />
		<edge from-layer="520" from-port="0" to-layer="522" to-port="3" />
		<edge from-layer="521" from-port="0" to-layer="522" to-port="4" />
		<edge from-layer="522" from-port="5" to-layer="637" to-port="0" />
		<edge from-layer="523" from-port="0" to-layer="529" to-port="0" />
		<edge from-layer="524" from-port="1" to-layer="544" to-port="0" />
		<edge from-layer="524" from-port="1" to-layer="527" to-port="0" />
		<edge from-layer="525" from-port="0" to-layer="527" to-port="1" />
		<edge from-layer="526" from-port="0" to-layer="527" to-port="2" />
		<edge from-layer="527" from-port="3" to-layer="529" to-port="1" />
		<edge from-layer="528" from-port="0" to-layer="529" to-port="2" />
		<edge from-layer="529" from-port="3" to-layer="531" to-port="0" />
		<edge from-layer="530" from-port="0" to-layer="531" to-port="1" />
		<edge from-layer="531" from-port="2" to-layer="532" to-port="0" />
		<edge from-layer="532" from-port="1" to-layer="534" to-port="0" />
		<edge from-layer="533" from-port="0" to-layer="534" to-port="1" />
		<edge from-layer="534" from-port="2" to-layer="536" to-port="0" />
		<edge from-layer="535" from-port="0" to-layer="536" to-port="1" />
		<edge from-layer="535" from-port="0" to-layer="552" to-port="1" />
		<edge from-layer="536" from-port="2" to-layer="538" to-port="0" />
		<edge from-layer="537" from-port="0" to-layer="538" to-port="1" />
		<edge from-layer="538" from-port="2" to-layer="540" to-port="0" />
		<edge from-layer="539" from-port="0" to-layer="540" to-port="1" />
		<edge from-layer="539" from-port="0" to-layer="555" to-port="1" />
		<edge from-layer="540" from-port="2" to-layer="558" to-port="0" />
		<edge from-layer="541" from-port="0" to-layer="546" to-port="0" />
		<edge from-layer="542" from-port="0" to-layer="544" to-port="1" />
		<edge from-layer="543" from-port="0" to-layer="544" to-port="2" />
		<edge from-layer="544" from-port="3" to-layer="546" to-port="1" />
		<edge from-layer="545" from-port="0" to-layer="546" to-port="2" />
		<edge from-layer="546" from-port="3" to-layer="548" to-port="0" />
		<edge from-layer="547" from-port="0" to-layer="548" to-port="1" />
		<edge from-layer="548" from-port="2" to-layer="549" to-port="0" />
		<edge from-layer="549" from-port="1" to-layer="551" to-port="0" />
		<edge from-layer="550" from-port="0" to-layer="551" to-port="1" />
		<edge from-layer="551" from-port="2" to-layer="552" to-port="0" />
		<edge from-layer="552" from-port="2" to-layer="554" to-port="0" />
		<edge from-layer="553" from-port="0" to-layer="554" to-port="1" />
		<edge from-layer="554" from-port="2" to-layer="555" to-port="0" />
		<edge from-layer="555" from-port="2" to-layer="558" to-port="1" />
		<edge from-layer="556" from-port="0" to-layer="558" to-port="2" />
		<edge from-layer="557" from-port="0" to-layer="558" to-port="3" />
		<edge from-layer="558" from-port="4" to-layer="631" to-port="0" />
		<edge from-layer="559" from-port="0" to-layer="565" to-port="0" />
		<edge from-layer="560" from-port="1" to-layer="563" to-port="0" />
		<edge from-layer="560" from-port="1" to-layer="580" to-port="0" />
		<edge from-layer="561" from-port="0" to-layer="563" to-port="1" />
		<edge from-layer="562" from-port="0" to-layer="563" to-port="2" />
		<edge from-layer="563" from-port="3" to-layer="565" to-port="1" />
		<edge from-layer="564" from-port="0" to-layer="565" to-port="2" />
		<edge from-layer="565" from-port="3" to-layer="567" to-port="0" />
		<edge from-layer="566" from-port="0" to-layer="567" to-port="1" />
		<edge from-layer="567" from-port="2" to-layer="568" to-port="0" />
		<edge from-layer="568" from-port="1" to-layer="570" to-port="0" />
		<edge from-layer="569" from-port="0" to-layer="570" to-port="1" />
		<edge from-layer="570" from-port="2" to-layer="572" to-port="0" />
		<edge from-layer="571" from-port="0" to-layer="588" to-port="1" />
		<edge from-layer="571" from-port="0" to-layer="572" to-port="1" />
		<edge from-layer="572" from-port="2" to-layer="574" to-port="0" />
		<edge from-layer="573" from-port="0" to-layer="574" to-port="1" />
		<edge from-layer="574" from-port="2" to-layer="576" to-port="0" />
		<edge from-layer="575" from-port="0" to-layer="591" to-port="1" />
		<edge from-layer="575" from-port="0" to-layer="576" to-port="1" />
		<edge from-layer="576" from-port="2" to-layer="594" to-port="0" />
		<edge from-layer="577" from-port="0" to-layer="582" to-port="0" />
		<edge from-layer="578" from-port="0" to-layer="580" to-port="1" />
		<edge from-layer="579" from-port="0" to-layer="580" to-port="2" />
		<edge from-layer="580" from-port="3" to-layer="582" to-port="1" />
		<edge from-layer="581" from-port="0" to-layer="582" to-port="2" />
		<edge from-layer="582" from-port="3" to-layer="584" to-port="0" />
		<edge from-layer="583" from-port="0" to-layer="584" to-port="1" />
		<edge from-layer="584" from-port="2" to-layer="585" to-port="0" />
		<edge from-layer="585" from-port="1" to-layer="587" to-port="0" />
		<edge from-layer="586" from-port="0" to-layer="587" to-port="1" />
		<edge from-layer="587" from-port="2" to-layer="588" to-port="0" />
		<edge from-layer="588" from-port="2" to-layer="590" to-port="0" />
		<edge from-layer="589" from-port="0" to-layer="590" to-port="1" />
		<edge from-layer="590" from-port="2" to-layer="591" to-port="0" />
		<edge from-layer="591" from-port="2" to-layer="594" to-port="1" />
		<edge from-layer="592" from-port="0" to-layer="594" to-port="2" />
		<edge from-layer="593" from-port="0" to-layer="594" to-port="3" />
		<edge from-layer="594" from-port="4" to-layer="631" to-port="1" />
		<edge from-layer="595" from-port="0" to-layer="601" to-port="0" />
		<edge from-layer="596" from-port="1" to-layer="599" to-port="0" />
		<edge from-layer="596" from-port="1" to-layer="616" to-port="0" />
		<edge from-layer="597" from-port="0" to-layer="599" to-port="1" />
		<edge from-layer="598" from-port="0" to-layer="599" to-port="2" />
		<edge from-layer="599" from-port="3" to-layer="601" to-port="1" />
		<edge from-layer="600" from-port="0" to-layer="601" to-port="2" />
		<edge from-layer="601" from-port="3" to-layer="603" to-port="0" />
		<edge from-layer="602" from-port="0" to-layer="603" to-port="1" />
		<edge from-layer="603" from-port="2" to-layer="604" to-port="0" />
		<edge from-layer="604" from-port="1" to-layer="606" to-port="0" />
		<edge from-layer="605" from-port="0" to-layer="606" to-port="1" />
		<edge from-layer="606" from-port="2" to-layer="608" to-port="0" />
		<edge from-layer="607" from-port="0" to-layer="608" to-port="1" />
		<edge from-layer="607" from-port="0" to-layer="624" to-port="1" />
		<edge from-layer="608" from-port="2" to-layer="610" to-port="0" />
		<edge from-layer="609" from-port="0" to-layer="610" to-port="1" />
		<edge from-layer="610" from-port="2" to-layer="612" to-port="0" />
		<edge from-layer="611" from-port="0" to-layer="627" to-port="1" />
		<edge from-layer="611" from-port="0" to-layer="612" to-port="1" />
		<edge from-layer="612" from-port="2" to-layer="630" to-port="0" />
		<edge from-layer="613" from-port="0" to-layer="618" to-port="0" />
		<edge from-layer="614" from-port="0" to-layer="616" to-port="1" />
		<edge from-layer="615" from-port="0" to-layer="616" to-port="2" />
		<edge from-layer="616" from-port="3" to-layer="618" to-port="1" />
		<edge from-layer="617" from-port="0" to-layer="618" to-port="2" />
		<edge from-layer="618" from-port="3" to-layer="620" to-port="0" />
		<edge from-layer="619" from-port="0" to-layer="620" to-port="1" />
		<edge from-layer="620" from-port="2" to-layer="621" to-port="0" />
		<edge from-layer="621" from-port="1" to-layer="623" to-port="0" />
		<edge from-layer="622" from-port="0" to-layer="623" to-port="1" />
		<edge from-layer="623" from-port="2" to-layer="624" to-port="0" />
		<edge from-layer="624" from-port="2" to-layer="626" to-port="0" />
		<edge from-layer="625" from-port="0" to-layer="626" to-port="1" />
		<edge from-layer="626" from-port="2" to-layer="627" to-port="0" />
		<edge from-layer="627" from-port="2" to-layer="630" to-port="1" />
		<edge from-layer="628" from-port="0" to-layer="630" to-port="2" />
		<edge from-layer="629" from-port="0" to-layer="630" to-port="3" />
		<edge from-layer="630" from-port="4" to-layer="631" to-port="2" />
		<edge from-layer="631" from-port="3" to-layer="636" to-port="0" />
		<edge from-layer="631" from-port="3" to-layer="642" to-port="0" />
		<edge from-layer="632" from-port="0" to-layer="636" to-port="1" />
		<edge from-layer="633" from-port="0" to-layer="636" to-port="2" />
		<edge from-layer="634" from-port="0" to-layer="636" to-port="3" />
		<edge from-layer="635" from-port="0" to-layer="636" to-port="4" />
		<edge from-layer="636" from-port="5" to-layer="637" to-port="1" />
		<edge from-layer="636" from-port="5" to-layer="653" to-port="1" />
		<edge from-layer="637" from-port="2" to-layer="643" to-port="0" />
		<edge from-layer="638" from-port="0" to-layer="642" to-port="1" />
		<edge from-layer="639" from-port="0" to-layer="642" to-port="2" />
		<edge from-layer="640" from-port="0" to-layer="642" to-port="3" />
		<edge from-layer="641" from-port="0" to-layer="642" to-port="4" />
		<edge from-layer="642" from-port="5" to-layer="643" to-port="1" />
		<edge from-layer="643" from-port="2" to-layer="664" to-port="0" />
		<edge from-layer="643" from-port="2" to-layer="646" to-port="0" />
		<edge from-layer="644" from-port="0" to-layer="646" to-port="1" />
		<edge from-layer="645" from-port="0" to-layer="646" to-port="2" />
		<edge from-layer="646" from-port="3" to-layer="672" to-port="0" />
		<edge from-layer="646" from-port="3" to-layer="659" to-port="0" />
		<edge from-layer="647" from-port="0" to-layer="651" to-port="1" />
		<edge from-layer="648" from-port="0" to-layer="651" to-port="2" />
		<edge from-layer="649" from-port="0" to-layer="651" to-port="3" />
		<edge from-layer="650" from-port="0" to-layer="651" to-port="4" />
		<edge from-layer="651" from-port="5" to-layer="652" to-port="0" />
		<edge from-layer="652" from-port="1" to-layer="653" to-port="0" />
		<edge from-layer="653" from-port="2" to-layer="656" to-port="0" />
		<edge from-layer="653" from-port="2" to-layer="667" to-port="0" />
		<edge from-layer="654" from-port="0" to-layer="656" to-port="1" />
		<edge from-layer="655" from-port="0" to-layer="656" to-port="2" />
		<edge from-layer="656" from-port="3" to-layer="658" to-port="0" />
		<edge from-layer="657" from-port="0" to-layer="658" to-port="1" />
		<edge from-layer="658" from-port="2" to-layer="659" to-port="1" />
		<edge from-layer="658" from-port="2" to-layer="672" to-port="1" />
		<edge from-layer="659" from-port="2" to-layer="661" to-port="0" />
		<edge from-layer="660" from-port="0" to-layer="661" to-port="1" />
		<edge from-layer="660" from-port="0" to-layer="671" to-port="1" />
		<edge from-layer="660" from-port="0" to-layer="673" to-port="1" />
		<edge from-layer="660" from-port="0" to-layer="675" to-port="1" />
		<edge from-layer="661" from-port="2" to-layer="676" to-port="0" />
		<edge from-layer="662" from-port="0" to-layer="664" to-port="1" />
		<edge from-layer="663" from-port="0" to-layer="664" to-port="2" />
		<edge from-layer="664" from-port="3" to-layer="674" to-port="0" />
		<edge from-layer="664" from-port="3" to-layer="670" to-port="0" />
		<edge from-layer="665" from-port="0" to-layer="667" to-port="1" />
		<edge from-layer="666" from-port="0" to-layer="667" to-port="2" />
		<edge from-layer="667" from-port="3" to-layer="669" to-port="0" />
		<edge from-layer="668" from-port="0" to-layer="669" to-port="1" />
		<edge from-layer="669" from-port="2" to-layer="670" to-port="1" />
		<edge from-layer="669" from-port="2" to-layer="674" to-port="1" />
		<edge from-layer="670" from-port="2" to-layer="671" to-port="0" />
		<edge from-layer="671" from-port="2" to-layer="676" to-port="1" />
		<edge from-layer="672" from-port="2" to-layer="673" to-port="0" />
		<edge from-layer="673" from-port="2" to-layer="676" to-port="2" />
		<edge from-layer="674" from-port="2" to-layer="675" to-port="0" />
		<edge from-layer="675" from-port="2" to-layer="676" to-port="3" />
		<edge from-layer="676" from-port="4" to-layer="678" to-port="0" />
		<edge from-layer="676" from-port="4" to-layer="677" to-port="0" />
		<edge from-layer="677" from-port="2" to-layer="683" to-port="0" />
		<edge from-layer="678" from-port="1" to-layer="680" to-port="0" />
		<edge from-layer="679" from-port="0" to-layer="680" to-port="1" />
		<edge from-layer="679" from-port="0" to-layer="683" to-port="2" />
		<edge from-layer="680" from-port="3" to-layer="681" to-port="1" />
		<edge from-layer="681" from-port="2" to-layer="682" to-port="1" />
		<edge from-layer="682" from-port="2" to-layer="683" to-port="1" />
		<edge from-layer="683" from-port="3" to-layer="685" to-port="0" />
		<edge from-layer="684" from-port="0" to-layer="685" to-port="1" />
		<edge from-layer="685" from-port="2" to-layer="688" to-port="0" />
		<edge from-layer="686" from-port="0" to-layer="687" to-port="1" />
		<edge from-layer="687" from-port="2" to-layer="688" to-port="1" />
		<edge from-layer="688" from-port="2" to-layer="689" to-port="0" />
	</edges>
	<rt_info>
		<Runtime_version value="2025.4.1-20426-82bbf0292c5-releases/2025/4" />
		<conversion_parameters>
			<framework value="pytorch" />
			<is_python_object value="True" />
		</conversion_parameters>
		<model_info>
			<confidence_threshold value="0.25" />
			<iou_threshold value="0.5" />
			<label_ids value="691bfa6c0a9b332eadf1d291 691bfa6c0a9b332eadf1d292 691bfa6c0a9b332eadf1d293" />
			<label_info value="{&quot;label_names&quot;: [&quot;defect&quot;, &quot;box&quot;, &quot;shipping label&quot;], &quot;label_ids&quot;: [&quot;691bfa6c0a9b332eadf1d291&quot;, &quot;691bfa6c0a9b332eadf1d292&quot;, &quot;691bfa6c0a9b332eadf1d293&quot;], &quot;label_groups&quot;: [[&quot;defect&quot;, &quot;box&quot;, &quot;shipping label&quot;]]}" />
			<labels value="defect box shipping_label" />
			<mean_values value="123.675 116.28 103.53" />
			<model_name value="yolox_tiny" />
			<model_type value="ssd" />
			<optimization_config value="{}" />
			<otx_version value="2.7.0dev" />
			<pad_value value="114" />
			<resize_type value="fit_to_window_letterbox" />
			<reverse_input_channels value="False" />
			<scale_values value="58.395 57.12 57.375" />
			<task_type value="detection" />
		</model_info>
	</rt_info>
</net>
